<?xml version="1.0"?>
<net name="Model201" version="11">
	<layers>
		<layer id="2" name="input_ids" type="Parameter" version="opset1">
			<data shape="?,?" element_type="i64" />
			<output>
				<port id="0" precision="I64" names="input_ids">
					<dim>-1</dim>
					<dim>-1</dim>
				</port>
			</output>
		</layer>
		<layer id="1" name="attention_mask" type="Parameter" version="opset1">
			<data shape="?,?" element_type="i64" />
			<output>
				<port id="0" precision="I64" names="attention_mask">
					<dim>-1</dim>
					<dim>-1</dim>
				</port>
			</output>
		</layer>
		<layer id="0" name="token_type_ids" type="Parameter" version="opset1">
			<data shape="?,?" element_type="i64" />
			<output>
				<port id="0" precision="I64" names="token_type_ids">
					<dim>-1</dim>
					<dim>-1</dim>
				</port>
			</output>
		</layer>
		<layer id="3" name="Constant_1157227" type="Const" version="opset1">
			<data element_type="i8" shape="30522, 1024" offset="0" size="31254528" />
			<output>
				<port id="0" precision="I8">
					<dim>30522</dim>
					<dim>1024</dim>
				</port>
			</output>
		</layer>
		<layer id="4" name="Convert_1157228" type="Convert" version="opset1">
			<data destination_type="f32" />
			<input>
				<port id="0" precision="I8">
					<dim>30522</dim>
					<dim>1024</dim>
				</port>
			</input>
			<output>
				<port id="1" precision="FP32">
					<dim>30522</dim>
					<dim>1024</dim>
				</port>
			</output>
		</layer>
		<layer id="5" name="Constant_1157229" type="Const" version="opset1">
			<data element_type="f32" shape="30522, 1" offset="31254528" size="122088" />
			<output>
				<port id="0" precision="FP32">
					<dim>30522</dim>
					<dim>1</dim>
				</port>
			</output>
		</layer>
		<layer id="6" name="__module.embeddings.word_embeddings/aten::embedding/Gather/fq_weights_0" type="Multiply" version="opset1">
			<data auto_broadcast="numpy" />
			<input>
				<port id="0" precision="FP32">
					<dim>30522</dim>
					<dim>1024</dim>
				</port>
				<port id="1" precision="FP32">
					<dim>30522</dim>
					<dim>1</dim>
				</port>
			</input>
			<output>
				<port id="2" precision="FP32">
					<dim>30522</dim>
					<dim>1024</dim>
				</port>
			</output>
		</layer>
		<layer id="7" name="__module.embeddings.word_embeddings/aten::embedding/Convert" type="Convert" version="opset1">
			<data destination_type="i32" />
			<input>
				<port id="0" precision="I64">
					<dim>-1</dim>
					<dim>-1</dim>
				</port>
			</input>
			<output>
				<port id="1" precision="I32">
					<dim>-1</dim>
					<dim>-1</dim>
				</port>
			</output>
		</layer>
		<layer id="8" name="__module.embeddings.word_embeddings/aten::embedding/Constant" type="Const" version="opset1">
			<data element_type="i32" shape="" offset="31376616" size="4" />
			<output>
				<port id="0" precision="I32" />
			</output>
		</layer>
		<layer id="9" name="__module.embeddings.word_embeddings/aten::embedding/Gather" type="Gather" version="opset8">
			<data batch_dims="0" />
			<input>
				<port id="0" precision="FP32">
					<dim>30522</dim>
					<dim>1024</dim>
				</port>
				<port id="1" precision="I32">
					<dim>-1</dim>
					<dim>-1</dim>
				</port>
				<port id="2" precision="I32" />
			</input>
			<output>
				<port id="3" precision="FP32" names="79,inputs_embeds">
					<dim>-1</dim>
					<dim>-1</dim>
					<dim>1024</dim>
				</port>
			</output>
		</layer>
		<layer id="10" name="Constant_1157231" type="Const" version="opset1">
			<data element_type="i8" shape="2, 1024" offset="31376620" size="2048" />
			<output>
				<port id="0" precision="I8">
					<dim>2</dim>
					<dim>1024</dim>
				</port>
			</output>
		</layer>
		<layer id="11" name="Convert_1157232" type="Convert" version="opset1">
			<data destination_type="f32" />
			<input>
				<port id="0" precision="I8">
					<dim>2</dim>
					<dim>1024</dim>
				</port>
			</input>
			<output>
				<port id="1" precision="FP32">
					<dim>2</dim>
					<dim>1024</dim>
				</port>
			</output>
		</layer>
		<layer id="12" name="Constant_1157233" type="Const" version="opset1">
			<data element_type="f32" shape="2, 1" offset="31378668" size="8" />
			<output>
				<port id="0" precision="FP32">
					<dim>2</dim>
					<dim>1</dim>
				</port>
			</output>
		</layer>
		<layer id="13" name="__module.embeddings.token_type_embeddings/aten::embedding/Gather/fq_weights_0" type="Multiply" version="opset1">
			<data auto_broadcast="numpy" />
			<input>
				<port id="0" precision="FP32">
					<dim>2</dim>
					<dim>1024</dim>
				</port>
				<port id="1" precision="FP32">
					<dim>2</dim>
					<dim>1</dim>
				</port>
			</input>
			<output>
				<port id="2" precision="FP32">
					<dim>2</dim>
					<dim>1024</dim>
				</port>
			</output>
		</layer>
		<layer id="14" name="__module.embeddings.token_type_embeddings/aten::embedding/Convert" type="Convert" version="opset1">
			<data destination_type="i32" />
			<input>
				<port id="0" precision="I64">
					<dim>-1</dim>
					<dim>-1</dim>
				</port>
			</input>
			<output>
				<port id="1" precision="I32">
					<dim>-1</dim>
					<dim>-1</dim>
				</port>
			</output>
		</layer>
		<layer id="15" name="__module.embeddings.token_type_embeddings/aten::embedding/Constant" type="Const" version="opset1">
			<data element_type="i32" shape="" offset="31376616" size="4" />
			<output>
				<port id="0" precision="I32" />
			</output>
		</layer>
		<layer id="16" name="__module.embeddings.token_type_embeddings/aten::embedding/Gather" type="Gather" version="opset8">
			<data batch_dims="0" />
			<input>
				<port id="0" precision="FP32">
					<dim>2</dim>
					<dim>1024</dim>
				</port>
				<port id="1" precision="I32">
					<dim>-1</dim>
					<dim>-1</dim>
				</port>
				<port id="2" precision="I32" />
			</input>
			<output>
				<port id="3" precision="FP32" names="81,token_type_embeddings.1">
					<dim>-1</dim>
					<dim>-1</dim>
					<dim>1024</dim>
				</port>
			</output>
		</layer>
		<layer id="17" name="__module.embeddings/aten::add/Add" type="Add" version="opset1">
			<data auto_broadcast="numpy" />
			<input>
				<port id="0" precision="FP32">
					<dim>-1</dim>
					<dim>-1</dim>
					<dim>1024</dim>
				</port>
				<port id="1" precision="FP32">
					<dim>-1</dim>
					<dim>-1</dim>
					<dim>1024</dim>
				</port>
			</input>
			<output>
				<port id="2" precision="FP32" names="82_1">
					<dim>-1</dim>
					<dim>-1</dim>
					<dim>1024</dim>
				</port>
			</output>
		</layer>
		<layer id="18" name="Constant_1157235" type="Const" version="opset1">
			<data element_type="i8" shape="512, 1024" offset="31378676" size="524288" />
			<output>
				<port id="0" precision="I8">
					<dim>512</dim>
					<dim>1024</dim>
				</port>
			</output>
		</layer>
		<layer id="19" name="Convert_1157236" type="Convert" version="opset1">
			<data destination_type="f32" />
			<input>
				<port id="0" precision="I8">
					<dim>512</dim>
					<dim>1024</dim>
				</port>
			</input>
			<output>
				<port id="1" precision="FP32">
					<dim>512</dim>
					<dim>1024</dim>
				</port>
			</output>
		</layer>
		<layer id="20" name="Constant_1157237" type="Const" version="opset1">
			<data element_type="f32" shape="512, 1" offset="31902964" size="2048" />
			<output>
				<port id="0" precision="FP32">
					<dim>512</dim>
					<dim>1</dim>
				</port>
			</output>
		</layer>
		<layer id="21" name="__module.embeddings.position_embeddings/aten::embedding/Gather/fq_weights_0" type="Multiply" version="opset1">
			<data auto_broadcast="numpy" />
			<input>
				<port id="0" precision="FP32">
					<dim>512</dim>
					<dim>1024</dim>
				</port>
				<port id="1" precision="FP32">
					<dim>512</dim>
					<dim>1</dim>
				</port>
			</input>
			<output>
				<port id="2" precision="FP32">
					<dim>512</dim>
					<dim>1024</dim>
				</port>
			</output>
		</layer>
		<layer id="22" name="__module.embeddings/aten::slice/Slice" type="Const" version="opset1">
			<data element_type="i64" shape="1, 512" offset="31905012" size="4096" />
			<output>
				<port id="0" precision="I64" names="76">
					<dim>1</dim>
					<dim>512</dim>
				</port>
			</output>
		</layer>
		<layer id="23" name="__module.embeddings/aten::slice/Reshape" type="Const" version="opset1">
			<data element_type="i64" shape="1" offset="31909108" size="8" />
			<output>
				<port id="0" precision="I64">
					<dim>1</dim>
				</port>
			</output>
		</layer>
		<layer id="24" name="ShapeOf_62984" type="ShapeOf" version="opset3">
			<data output_type="i64" />
			<input>
				<port id="0" precision="I64">
					<dim>-1</dim>
					<dim>-1</dim>
				</port>
			</input>
			<output>
				<port id="1" precision="I64">
					<dim>2</dim>
				</port>
			</output>
		</layer>
		<layer id="25" name="Constant_63124" type="Const" version="opset1">
			<data element_type="i64" shape="1" offset="31909116" size="8" />
			<output>
				<port id="0" precision="I64">
					<dim>1</dim>
				</port>
			</output>
		</layer>
		<layer id="26" name="Constant_62986" type="Const" version="opset1">
			<data element_type="i64" shape="" offset="31909108" size="8" />
			<output>
				<port id="0" precision="I64" />
			</output>
		</layer>
		<layer id="27" name="Gather_62987" type="Gather" version="opset8">
			<data batch_dims="0" />
			<input>
				<port id="0" precision="I64">
					<dim>2</dim>
				</port>
				<port id="1" precision="I64">
					<dim>1</dim>
				</port>
				<port id="2" precision="I64" />
			</input>
			<output>
				<port id="3" precision="I64" names="10,17,19,72,74,75,8">
					<dim>1</dim>
				</port>
			</output>
		</layer>
		<layer id="28" name="__module.embeddings/aten::slice/Reshape_2" type="Const" version="opset1">
			<data element_type="i64" shape="1" offset="31909116" size="8" />
			<output>
				<port id="0" precision="I64">
					<dim>1</dim>
				</port>
			</output>
		</layer>
		<layer id="29" name="__module.embeddings/aten::slice/Reshape_3" type="Const" version="opset1">
			<data element_type="i64" shape="1" offset="31909116" size="8" />
			<output>
				<port id="0" precision="I64">
					<dim>1</dim>
				</port>
			</output>
		</layer>
		<layer id="30" name="__module.embeddings/aten::slice/Slice_1" type="Slice" version="opset8">
			<input>
				<port id="0" precision="I64">
					<dim>1</dim>
					<dim>512</dim>
				</port>
				<port id="1" precision="I64">
					<dim>1</dim>
				</port>
				<port id="2" precision="I64">
					<dim>1</dim>
				</port>
				<port id="3" precision="I64">
					<dim>1</dim>
				</port>
				<port id="4" precision="I64">
					<dim>1</dim>
				</port>
			</input>
			<output>
				<port id="5" precision="I64" names="77">
					<dim>1</dim>
					<dim>-1</dim>
				</port>
			</output>
		</layer>
		<layer id="31" name="__module.embeddings.position_embeddings/aten::embedding/Convert" type="Convert" version="opset1">
			<data destination_type="i32" />
			<input>
				<port id="0" precision="I64">
					<dim>1</dim>
					<dim>-1</dim>
				</port>
			</input>
			<output>
				<port id="1" precision="I32">
					<dim>1</dim>
					<dim>-1</dim>
				</port>
			</output>
		</layer>
		<layer id="32" name="__module.embeddings.position_embeddings/aten::embedding/Constant" type="Const" version="opset1">
			<data element_type="i32" shape="" offset="31376616" size="4" />
			<output>
				<port id="0" precision="I32" />
			</output>
		</layer>
		<layer id="33" name="__module.embeddings.position_embeddings/aten::embedding/Gather" type="Gather" version="opset8">
			<data batch_dims="0" />
			<input>
				<port id="0" precision="FP32">
					<dim>512</dim>
					<dim>1024</dim>
				</port>
				<port id="1" precision="I32">
					<dim>1</dim>
					<dim>-1</dim>
				</port>
				<port id="2" precision="I32" />
			</input>
			<output>
				<port id="3" precision="FP32" names="84,position_embeddings.1">
					<dim>1</dim>
					<dim>-1</dim>
					<dim>1024</dim>
				</port>
			</output>
		</layer>
		<layer id="34" name="__module.embeddings/aten::add_/Add" type="Add" version="opset1">
			<data auto_broadcast="numpy" />
			<input>
				<port id="0" precision="FP32">
					<dim>-1</dim>
					<dim>-1</dim>
					<dim>1024</dim>
				</port>
				<port id="1" precision="FP32">
					<dim>1</dim>
					<dim>-1</dim>
					<dim>1024</dim>
				</port>
			</input>
			<output>
				<port id="2" precision="FP32" names="82,embeddings.1">
					<dim>-1</dim>
					<dim>-1</dim>
					<dim>1024</dim>
				</port>
			</output>
		</layer>
		<layer id="35" name="__module.embeddings.LayerNorm/aten::layer_norm/Multiply" type="Const" version="opset1">
			<data element_type="i32" shape="1" offset="31909124" size="4" />
			<output>
				<port id="0" precision="I32">
					<dim>1</dim>
				</port>
			</output>
		</layer>
		<layer id="36" name="__module.embeddings.LayerNorm/aten::layer_norm/MVN" type="MVN" version="opset6">
			<data eps="9.999999960041972e-13" normalize_variance="true" eps_mode="INSIDE_SQRT" />
			<input>
				<port id="0" precision="FP32">
					<dim>-1</dim>
					<dim>-1</dim>
					<dim>1024</dim>
				</port>
				<port id="1" precision="I32">
					<dim>1</dim>
				</port>
			</input>
			<output>
				<port id="2" precision="FP32">
					<dim>-1</dim>
					<dim>-1</dim>
					<dim>1024</dim>
				</port>
			</output>
		</layer>
		<layer id="37" name="Constant_62553" type="Const" version="opset1">
			<data element_type="f32" shape="1, 1, 1024" offset="31909128" size="4096" />
			<output>
				<port id="0" precision="FP32">
					<dim>1</dim>
					<dim>1</dim>
					<dim>1024</dim>
				</port>
			</output>
		</layer>
		<layer id="38" name="__module.embeddings.LayerNorm/aten::layer_norm/Multiply_1" type="Multiply" version="opset1">
			<data auto_broadcast="numpy" />
			<input>
				<port id="0" precision="FP32">
					<dim>-1</dim>
					<dim>-1</dim>
					<dim>1024</dim>
				</port>
				<port id="1" precision="FP32">
					<dim>1</dim>
					<dim>1</dim>
					<dim>1024</dim>
				</port>
			</input>
			<output>
				<port id="2" precision="FP32">
					<dim>-1</dim>
					<dim>-1</dim>
					<dim>1024</dim>
				</port>
			</output>
		</layer>
		<layer id="39" name="Constant_62554" type="Const" version="opset1">
			<data element_type="f32" shape="1, 1, 1024" offset="31913224" size="4096" />
			<output>
				<port id="0" precision="FP32">
					<dim>1</dim>
					<dim>1</dim>
					<dim>1024</dim>
				</port>
			</output>
		</layer>
		<layer id="40" name="__module.embeddings.LayerNorm/aten::layer_norm/Add" type="Add" version="opset1">
			<data auto_broadcast="numpy" />
			<input>
				<port id="0" precision="FP32">
					<dim>-1</dim>
					<dim>-1</dim>
					<dim>1024</dim>
				</port>
				<port id="1" precision="FP32">
					<dim>1</dim>
					<dim>1</dim>
					<dim>1024</dim>
				</port>
			</input>
			<output>
				<port id="2" precision="FP32" names="89,input.1">
					<dim>-1</dim>
					<dim>-1</dim>
					<dim>1024</dim>
				</port>
			</output>
		</layer>
		<layer id="41" name="__module.embeddings.LayerNorm/aten::layer_norm/Add_0_0/nncf_smooth_quant/scale" type="Const" version="opset1">
			<data element_type="f32" shape="1, 1, 1024" offset="31917320" size="4096" />
			<output>
				<port id="0" precision="FP32">
					<dim>1</dim>
					<dim>1</dim>
					<dim>1024</dim>
				</port>
			</output>
		</layer>
		<layer id="42" name="__module.embeddings.LayerNorm/aten::layer_norm/Add_0_0/nncf_smooth_quant" type="Multiply" version="opset1">
			<data auto_broadcast="numpy" />
			<input>
				<port id="0" precision="FP32">
					<dim>-1</dim>
					<dim>-1</dim>
					<dim>1024</dim>
				</port>
				<port id="1" precision="FP32">
					<dim>1</dim>
					<dim>1</dim>
					<dim>1024</dim>
				</port>
			</input>
			<output>
				<port id="2" precision="FP32">
					<dim>-1</dim>
					<dim>-1</dim>
					<dim>1024</dim>
				</port>
			</output>
		</layer>
		<layer id="43" name="__module.embeddings.LayerNorm/aten::layer_norm/Add_0_0/nncf_smooth_quant/fq_output_0/input_low" type="Const" version="opset1">
			<data element_type="f32" shape="" offset="31921416" size="4" />
			<output>
				<port id="0" precision="FP32" />
			</output>
		</layer>
		<layer id="44" name="__module.embeddings.LayerNorm/aten::layer_norm/Add_0_0/nncf_smooth_quant/fq_output_0/input_high" type="Const" version="opset1">
			<data element_type="f32" shape="" offset="31921420" size="4" />
			<output>
				<port id="0" precision="FP32" />
			</output>
		</layer>
		<layer id="45" name="__module.embeddings.LayerNorm/aten::layer_norm/Add_0_0/nncf_smooth_quant/fq_output_0/output_low" type="Const" version="opset1">
			<data element_type="f32" shape="" offset="31921416" size="4" />
			<output>
				<port id="0" precision="FP32" />
			</output>
		</layer>
		<layer id="46" name="__module.embeddings.LayerNorm/aten::layer_norm/Add_0_0/nncf_smooth_quant/fq_output_0/output_high" type="Const" version="opset1">
			<data element_type="f32" shape="" offset="31921420" size="4" />
			<output>
				<port id="0" precision="FP32" />
			</output>
		</layer>
		<layer id="47" name="__module.embeddings.LayerNorm/aten::layer_norm/Add_0_0/nncf_smooth_quant/fq_output_0" type="FakeQuantize" version="opset1">
			<data levels="256" auto_broadcast="numpy" />
			<input>
				<port id="0" precision="FP32">
					<dim>-1</dim>
					<dim>-1</dim>
					<dim>1024</dim>
				</port>
				<port id="1" precision="FP32" />
				<port id="2" precision="FP32" />
				<port id="3" precision="FP32" />
				<port id="4" precision="FP32" />
			</input>
			<output>
				<port id="5" precision="FP32">
					<dim>-1</dim>
					<dim>-1</dim>
					<dim>1024</dim>
				</port>
			</output>
		</layer>
		<layer id="48" name="Constant_1157239" type="Const" version="opset1">
			<data element_type="i8" shape="1024, 1024" offset="31921424" size="1048576" />
			<output>
				<port id="0" precision="I8">
					<dim>1024</dim>
					<dim>1024</dim>
				</port>
			</output>
		</layer>
		<layer id="49" name="Convert_1157240" type="Convert" version="opset1">
			<data destination_type="f32" />
			<input>
				<port id="0" precision="I8">
					<dim>1024</dim>
					<dim>1024</dim>
				</port>
			</input>
			<output>
				<port id="1" precision="FP32">
					<dim>1024</dim>
					<dim>1024</dim>
				</port>
			</output>
		</layer>
		<layer id="50" name="Constant_1157241" type="Const" version="opset1">
			<data element_type="f32" shape="1024, 1" offset="32970000" size="4096" />
			<output>
				<port id="0" precision="FP32">
					<dim>1024</dim>
					<dim>1</dim>
				</port>
			</output>
		</layer>
		<layer id="51" name="__module.encoder.layer.0.attention.self.query/aten::linear/MatMul/fq_weights_1" type="Multiply" version="opset1">
			<data auto_broadcast="numpy" />
			<input>
				<port id="0" precision="FP32">
					<dim>1024</dim>
					<dim>1024</dim>
				</port>
				<port id="1" precision="FP32">
					<dim>1024</dim>
					<dim>1</dim>
				</port>
			</input>
			<output>
				<port id="2" precision="FP32">
					<dim>1024</dim>
					<dim>1024</dim>
				</port>
			</output>
		</layer>
		<layer id="52" name="__module.encoder.layer.0.attention.self.query/aten::linear/MatMul" type="MatMul" version="opset1">
			<data transpose_a="false" transpose_b="true" />
			<input>
				<port id="0" precision="FP32">
					<dim>-1</dim>
					<dim>-1</dim>
					<dim>1024</dim>
				</port>
				<port id="1" precision="FP32">
					<dim>1024</dim>
					<dim>1024</dim>
				</port>
			</input>
			<output>
				<port id="2" precision="FP32">
					<dim>-1</dim>
					<dim>-1</dim>
					<dim>1024</dim>
				</port>
			</output>
		</layer>
		<layer id="53" name="Constant_62555" type="Const" version="opset1">
			<data element_type="f32" shape="1, 1, 1024" offset="32974096" size="4096" />
			<output>
				<port id="0" precision="FP32">
					<dim>1</dim>
					<dim>1</dim>
					<dim>1024</dim>
				</port>
			</output>
		</layer>
		<layer id="54" name="__module.encoder.layer.0.attention.self.query/aten::linear/Add" type="Add" version="opset1">
			<data auto_broadcast="numpy" />
			<input>
				<port id="0" precision="FP32">
					<dim>-1</dim>
					<dim>-1</dim>
					<dim>1024</dim>
				</port>
				<port id="1" precision="FP32">
					<dim>1</dim>
					<dim>1</dim>
					<dim>1024</dim>
				</port>
			</input>
			<output>
				<port id="2" precision="FP32" names="165,x.1">
					<dim>-1</dim>
					<dim>-1</dim>
					<dim>1024</dim>
				</port>
			</output>
		</layer>
		<layer id="55" name="__module.encoder.layer.0.attention.self.query/aten::linear/Add/fq_output_0/input_low" type="Const" version="opset1">
			<data element_type="f32" shape="" offset="32978192" size="4" />
			<output>
				<port id="0" precision="FP32" />
			</output>
		</layer>
		<layer id="56" name="__module.encoder.layer.0.attention.self.query/aten::linear/Add/fq_output_0/input_high" type="Const" version="opset1">
			<data element_type="f32" shape="" offset="32978196" size="4" />
			<output>
				<port id="0" precision="FP32" />
			</output>
		</layer>
		<layer id="57" name="__module.encoder.layer.0.attention.self.query/aten::linear/Add/fq_output_0/output_low" type="Const" version="opset1">
			<data element_type="f32" shape="" offset="32978192" size="4" />
			<output>
				<port id="0" precision="FP32" />
			</output>
		</layer>
		<layer id="58" name="__module.encoder.layer.0.attention.self.query/aten::linear/Add/fq_output_0/output_high" type="Const" version="opset1">
			<data element_type="f32" shape="" offset="32978196" size="4" />
			<output>
				<port id="0" precision="FP32" />
			</output>
		</layer>
		<layer id="59" name="__module.encoder.layer.0.attention.self.query/aten::linear/Add/fq_output_0" type="FakeQuantize" version="opset1">
			<data levels="256" auto_broadcast="numpy" />
			<input>
				<port id="0" precision="FP32">
					<dim>-1</dim>
					<dim>-1</dim>
					<dim>1024</dim>
				</port>
				<port id="1" precision="FP32" />
				<port id="2" precision="FP32" />
				<port id="3" precision="FP32" />
				<port id="4" precision="FP32" />
			</input>
			<output>
				<port id="5" precision="FP32">
					<dim>-1</dim>
					<dim>-1</dim>
					<dim>1024</dim>
				</port>
			</output>
		</layer>
		<layer id="60" name="__module.encoder.layer.0.attention.self/prim::ListConstruct/Concat" type="Const" version="opset1">
			<data element_type="i64" shape="4" offset="32978200" size="32" />
			<output>
				<port id="0" precision="I64">
					<dim>4</dim>
				</port>
			</output>
		</layer>
		<layer id="61" name="__module.encoder.layer.0.attention.self/aten::view/Reshape" type="Reshape" version="opset1">
			<data special_zero="true" />
			<input>
				<port id="0" precision="FP32">
					<dim>-1</dim>
					<dim>-1</dim>
					<dim>1024</dim>
				</port>
				<port id="1" precision="I64">
					<dim>4</dim>
				</port>
			</input>
			<output>
				<port id="2" precision="FP32" names="169,x.3">
					<dim>-1</dim>
					<dim>-1</dim>
					<dim>16</dim>
					<dim>64</dim>
				</port>
			</output>
		</layer>
		<layer id="62" name="Constant_47156" type="Const" version="opset1">
			<data element_type="i64" shape="4" offset="32978232" size="32" />
			<output>
				<port id="0" precision="I64" names="170">
					<dim>4</dim>
				</port>
			</output>
		</layer>
		<layer id="63" name="__module.encoder.layer.0.attention.self/aten::permute/Transpose" type="Transpose" version="opset1">
			<input>
				<port id="0" precision="FP32">
					<dim>-1</dim>
					<dim>-1</dim>
					<dim>16</dim>
					<dim>64</dim>
				</port>
				<port id="1" precision="I64">
					<dim>4</dim>
				</port>
			</input>
			<output>
				<port id="2" precision="FP32" names="171">
					<dim>-1</dim>
					<dim>16</dim>
					<dim>-1</dim>
					<dim>64</dim>
				</port>
			</output>
		</layer>
		<layer id="64" name="Constant_1157243" type="Const" version="opset1">
			<data element_type="i8" shape="1024, 1024" offset="32978264" size="1048576" />
			<output>
				<port id="0" precision="I8">
					<dim>1024</dim>
					<dim>1024</dim>
				</port>
			</output>
		</layer>
		<layer id="65" name="Convert_1157244" type="Convert" version="opset1">
			<data destination_type="f32" />
			<input>
				<port id="0" precision="I8">
					<dim>1024</dim>
					<dim>1024</dim>
				</port>
			</input>
			<output>
				<port id="1" precision="FP32">
					<dim>1024</dim>
					<dim>1024</dim>
				</port>
			</output>
		</layer>
		<layer id="66" name="Constant_1157245" type="Const" version="opset1">
			<data element_type="f32" shape="1024, 1" offset="34026840" size="4096" />
			<output>
				<port id="0" precision="FP32">
					<dim>1024</dim>
					<dim>1</dim>
				</port>
			</output>
		</layer>
		<layer id="67" name="__module.encoder.layer.0.attention.self.key/aten::linear/MatMul/fq_weights_1" type="Multiply" version="opset1">
			<data auto_broadcast="numpy" />
			<input>
				<port id="0" precision="FP32">
					<dim>1024</dim>
					<dim>1024</dim>
				</port>
				<port id="1" precision="FP32">
					<dim>1024</dim>
					<dim>1</dim>
				</port>
			</input>
			<output>
				<port id="2" precision="FP32">
					<dim>1024</dim>
					<dim>1024</dim>
				</port>
			</output>
		</layer>
		<layer id="68" name="__module.encoder.layer.0.attention.self.key/aten::linear/MatMul" type="MatMul" version="opset1">
			<data transpose_a="false" transpose_b="true" />
			<input>
				<port id="0" precision="FP32">
					<dim>-1</dim>
					<dim>-1</dim>
					<dim>1024</dim>
				</port>
				<port id="1" precision="FP32">
					<dim>1024</dim>
					<dim>1024</dim>
				</port>
			</input>
			<output>
				<port id="2" precision="FP32">
					<dim>-1</dim>
					<dim>-1</dim>
					<dim>1024</dim>
				</port>
			</output>
		</layer>
		<layer id="69" name="Constant_62556" type="Const" version="opset1">
			<data element_type="f32" shape="1, 1, 1024" offset="34030936" size="4096" />
			<output>
				<port id="0" precision="FP32">
					<dim>1</dim>
					<dim>1</dim>
					<dim>1024</dim>
				</port>
			</output>
		</layer>
		<layer id="70" name="__module.encoder.layer.0.attention.self.key/aten::linear/Add" type="Add" version="opset1">
			<data auto_broadcast="numpy" />
			<input>
				<port id="0" precision="FP32">
					<dim>-1</dim>
					<dim>-1</dim>
					<dim>1024</dim>
				</port>
				<port id="1" precision="FP32">
					<dim>1</dim>
					<dim>1</dim>
					<dim>1024</dim>
				</port>
			</input>
			<output>
				<port id="2" precision="FP32" names="174,x.5">
					<dim>-1</dim>
					<dim>-1</dim>
					<dim>1024</dim>
				</port>
			</output>
		</layer>
		<layer id="71" name="__module.encoder.layer.0.attention.self.key/aten::linear/Add/fq_output_0/input_low" type="Const" version="opset1">
			<data element_type="f32" shape="" offset="34035032" size="4" />
			<output>
				<port id="0" precision="FP32" />
			</output>
		</layer>
		<layer id="72" name="__module.encoder.layer.0.attention.self.key/aten::linear/Add/fq_output_0/input_high" type="Const" version="opset1">
			<data element_type="f32" shape="" offset="34035036" size="4" />
			<output>
				<port id="0" precision="FP32" />
			</output>
		</layer>
		<layer id="73" name="__module.encoder.layer.0.attention.self.key/aten::linear/Add/fq_output_0/output_low" type="Const" version="opset1">
			<data element_type="f32" shape="" offset="34035032" size="4" />
			<output>
				<port id="0" precision="FP32" />
			</output>
		</layer>
		<layer id="74" name="__module.encoder.layer.0.attention.self.key/aten::linear/Add/fq_output_0/output_high" type="Const" version="opset1">
			<data element_type="f32" shape="" offset="34035036" size="4" />
			<output>
				<port id="0" precision="FP32" />
			</output>
		</layer>
		<layer id="75" name="__module.encoder.layer.0.attention.self.key/aten::linear/Add/fq_output_0" type="FakeQuantize" version="opset1">
			<data levels="256" auto_broadcast="numpy" />
			<input>
				<port id="0" precision="FP32">
					<dim>-1</dim>
					<dim>-1</dim>
					<dim>1024</dim>
				</port>
				<port id="1" precision="FP32" />
				<port id="2" precision="FP32" />
				<port id="3" precision="FP32" />
				<port id="4" precision="FP32" />
			</input>
			<output>
				<port id="5" precision="FP32">
					<dim>-1</dim>
					<dim>-1</dim>
					<dim>1024</dim>
				</port>
			</output>
		</layer>
		<layer id="76" name="__module.encoder.layer.0.attention.self/prim::ListConstruct/Concat_1" type="Const" version="opset1">
			<data element_type="i64" shape="4" offset="32978200" size="32" />
			<output>
				<port id="0" precision="I64">
					<dim>4</dim>
				</port>
			</output>
		</layer>
		<layer id="77" name="__module.encoder.layer.0.attention.self/aten::view/Reshape_1" type="Reshape" version="opset1">
			<data special_zero="true" />
			<input>
				<port id="0" precision="FP32">
					<dim>-1</dim>
					<dim>-1</dim>
					<dim>1024</dim>
				</port>
				<port id="1" precision="I64">
					<dim>4</dim>
				</port>
			</input>
			<output>
				<port id="2" precision="FP32" names="178,x.7">
					<dim>-1</dim>
					<dim>-1</dim>
					<dim>16</dim>
					<dim>64</dim>
				</port>
			</output>
		</layer>
		<layer id="78" name="Constant_47181" type="Const" version="opset1">
			<data element_type="i64" shape="4" offset="32978232" size="32" />
			<output>
				<port id="0" precision="I64" names="179">
					<dim>4</dim>
				</port>
			</output>
		</layer>
		<layer id="79" name="__module.encoder.layer.0.attention.self/aten::permute/Transpose_1" type="Transpose" version="opset1">
			<input>
				<port id="0" precision="FP32">
					<dim>-1</dim>
					<dim>-1</dim>
					<dim>16</dim>
					<dim>64</dim>
				</port>
				<port id="1" precision="I64">
					<dim>4</dim>
				</port>
			</input>
			<output>
				<port id="2" precision="FP32" names="180">
					<dim>-1</dim>
					<dim>16</dim>
					<dim>-1</dim>
					<dim>64</dim>
				</port>
			</output>
		</layer>
		<layer id="80" name="Constant_1157247" type="Const" version="opset1">
			<data element_type="i8" shape="1024, 1024" offset="34035040" size="1048576" />
			<output>
				<port id="0" precision="I8">
					<dim>1024</dim>
					<dim>1024</dim>
				</port>
			</output>
		</layer>
		<layer id="81" name="Convert_1157248" type="Convert" version="opset1">
			<data destination_type="f32" />
			<input>
				<port id="0" precision="I8">
					<dim>1024</dim>
					<dim>1024</dim>
				</port>
			</input>
			<output>
				<port id="1" precision="FP32">
					<dim>1024</dim>
					<dim>1024</dim>
				</port>
			</output>
		</layer>
		<layer id="82" name="Constant_1157249" type="Const" version="opset1">
			<data element_type="f32" shape="1024, 1" offset="35083616" size="4096" />
			<output>
				<port id="0" precision="FP32">
					<dim>1024</dim>
					<dim>1</dim>
				</port>
			</output>
		</layer>
		<layer id="83" name="__module.encoder.layer.0.attention.self.value/aten::linear/MatMul/fq_weights_1" type="Multiply" version="opset1">
			<data auto_broadcast="numpy" />
			<input>
				<port id="0" precision="FP32">
					<dim>1024</dim>
					<dim>1024</dim>
				</port>
				<port id="1" precision="FP32">
					<dim>1024</dim>
					<dim>1</dim>
				</port>
			</input>
			<output>
				<port id="2" precision="FP32">
					<dim>1024</dim>
					<dim>1024</dim>
				</port>
			</output>
		</layer>
		<layer id="84" name="__module.encoder.layer.0.attention.self.value/aten::linear/MatMul" type="MatMul" version="opset1">
			<data transpose_a="false" transpose_b="true" />
			<input>
				<port id="0" precision="FP32">
					<dim>-1</dim>
					<dim>-1</dim>
					<dim>1024</dim>
				</port>
				<port id="1" precision="FP32">
					<dim>1024</dim>
					<dim>1024</dim>
				</port>
			</input>
			<output>
				<port id="2" precision="FP32">
					<dim>-1</dim>
					<dim>-1</dim>
					<dim>1024</dim>
				</port>
			</output>
		</layer>
		<layer id="85" name="Constant_62557" type="Const" version="opset1">
			<data element_type="f32" shape="1, 1, 1024" offset="35087712" size="4096" />
			<output>
				<port id="0" precision="FP32">
					<dim>1</dim>
					<dim>1</dim>
					<dim>1024</dim>
				</port>
			</output>
		</layer>
		<layer id="86" name="__module.encoder.layer.0.attention.self.value/aten::linear/Add" type="Add" version="opset1">
			<data auto_broadcast="numpy" />
			<input>
				<port id="0" precision="FP32">
					<dim>-1</dim>
					<dim>-1</dim>
					<dim>1024</dim>
				</port>
				<port id="1" precision="FP32">
					<dim>1</dim>
					<dim>1</dim>
					<dim>1024</dim>
				</port>
			</input>
			<output>
				<port id="2" precision="FP32" names="183,x.9">
					<dim>-1</dim>
					<dim>-1</dim>
					<dim>1024</dim>
				</port>
			</output>
		</layer>
		<layer id="87" name="__module.encoder.layer.0.attention.self/prim::ListConstruct/Concat_2" type="Const" version="opset1">
			<data element_type="i64" shape="4" offset="32978200" size="32" />
			<output>
				<port id="0" precision="I64">
					<dim>4</dim>
				</port>
			</output>
		</layer>
		<layer id="88" name="__module.encoder.layer.0.attention.self/aten::view/Reshape_2" type="Reshape" version="opset1">
			<data special_zero="true" />
			<input>
				<port id="0" precision="FP32">
					<dim>-1</dim>
					<dim>-1</dim>
					<dim>1024</dim>
				</port>
				<port id="1" precision="I64">
					<dim>4</dim>
				</port>
			</input>
			<output>
				<port id="2" precision="FP32" names="187,x.11">
					<dim>-1</dim>
					<dim>-1</dim>
					<dim>16</dim>
					<dim>64</dim>
				</port>
			</output>
		</layer>
		<layer id="89" name="Constant_47206" type="Const" version="opset1">
			<data element_type="i64" shape="4" offset="32978232" size="32" />
			<output>
				<port id="0" precision="I64" names="188">
					<dim>4</dim>
				</port>
			</output>
		</layer>
		<layer id="90" name="__module.encoder.layer.0.attention.self/aten::permute/Transpose_2" type="Transpose" version="opset1">
			<input>
				<port id="0" precision="FP32">
					<dim>-1</dim>
					<dim>-1</dim>
					<dim>16</dim>
					<dim>64</dim>
				</port>
				<port id="1" precision="I64">
					<dim>4</dim>
				</port>
			</input>
			<output>
				<port id="2" precision="FP32" names="189">
					<dim>-1</dim>
					<dim>16</dim>
					<dim>-1</dim>
					<dim>64</dim>
				</port>
			</output>
		</layer>
		<layer id="91" name="Constant_62559" type="Const" version="opset1">
			<data element_type="f32" shape="1, 1, 1, 1" offset="35091808" size="4" />
			<output>
				<port id="0" precision="FP32">
					<dim>1</dim>
					<dim>1</dim>
					<dim>1</dim>
					<dim>1</dim>
				</port>
			</output>
		</layer>
		<layer id="92" name="25" type="Const" version="opset1">
			<data element_type="i64" shape="" offset="31909116" size="8" />
			<output>
				<port id="0" precision="I64" names="25" />
			</output>
		</layer>
		<layer id="93" name="aten::unsqueeze/Unsqueeze" type="Unsqueeze" version="opset1">
			<input>
				<port id="0" precision="I64">
					<dim>-1</dim>
					<dim>-1</dim>
				</port>
				<port id="1" precision="I64" />
			</input>
			<output>
				<port id="2" precision="I64" names="26">
					<dim>-1</dim>
					<dim>1</dim>
					<dim>-1</dim>
				</port>
			</output>
		</layer>
		<layer id="94" name="27" type="Const" version="opset1">
			<data element_type="i64" shape="" offset="35091812" size="8" />
			<output>
				<port id="0" precision="I64" names="27" />
			</output>
		</layer>
		<layer id="95" name="aten::unsqueeze/Unsqueeze_1" type="Unsqueeze" version="opset1">
			<input>
				<port id="0" precision="I64">
					<dim>-1</dim>
					<dim>1</dim>
					<dim>-1</dim>
				</port>
				<port id="1" precision="I64" />
			</input>
			<output>
				<port id="2" precision="I64" names="28,33">
					<dim>-1</dim>
					<dim>1</dim>
					<dim>1</dim>
					<dim>-1</dim>
				</port>
			</output>
		</layer>
		<layer id="96" name="Constant_63127" type="Const" version="opset1">
			<data element_type="i64" shape="1" offset="31909108" size="8" />
			<output>
				<port id="0" precision="I64">
					<dim>1</dim>
				</port>
			</output>
		</layer>
		<layer id="97" name="Constant_62994" type="Const" version="opset1">
			<data element_type="i64" shape="" offset="31909108" size="8" />
			<output>
				<port id="0" precision="I64" />
			</output>
		</layer>
		<layer id="98" name="Gather_62995" type="Gather" version="opset8">
			<data batch_dims="0" />
			<input>
				<port id="0" precision="I64">
					<dim>2</dim>
				</port>
				<port id="1" precision="I64">
					<dim>1</dim>
				</port>
				<port id="2" precision="I64" />
			</input>
			<output>
				<port id="3" precision="I64" names="13,15">
					<dim>1</dim>
				</port>
			</output>
		</layer>
		<layer id="99" name="Constant_59965" type="Const" version="opset1">
			<data element_type="i64" shape="1" offset="31909116" size="8" />
			<output>
				<port id="0" precision="I64">
					<dim>1</dim>
				</port>
			</output>
		</layer>
		<layer id="100" name="Constant_63129" type="Const" version="opset1">
			<data element_type="i64" shape="2" offset="35091820" size="16" />
			<output>
				<port id="0" precision="I64">
					<dim>2</dim>
				</port>
			</output>
		</layer>
		<layer id="101" name="Constant_63130" type="Const" version="opset1">
			<data element_type="i64" shape="" offset="31909108" size="8" />
			<output>
				<port id="0" precision="I64" />
			</output>
		</layer>
		<layer id="102" name="Gather_63131" type="Gather" version="opset8">
			<data batch_dims="0" />
			<input>
				<port id="0" precision="I64">
					<dim>2</dim>
				</port>
				<port id="1" precision="I64">
					<dim>2</dim>
				</port>
				<port id="2" precision="I64" />
			</input>
			<output>
				<port id="3" precision="I64">
					<dim>2</dim>
				</port>
			</output>
		</layer>
		<layer id="103" name="prim::ListConstruct/Concat" type="Concat" version="opset1">
			<data axis="0" />
			<input>
				<port id="0" precision="I64">
					<dim>1</dim>
				</port>
				<port id="1" precision="I64">
					<dim>1</dim>
				</port>
				<port id="2" precision="I64">
					<dim>2</dim>
				</port>
			</input>
			<output>
				<port id="3" precision="I64" names="35">
					<dim>4</dim>
				</port>
			</output>
		</layer>
		<layer id="104" name="aten::expand/Broadcast" type="Broadcast" version="opset3">
			<data mode="bidirectional" />
			<input>
				<port id="0" precision="I64">
					<dim>-1</dim>
					<dim>1</dim>
					<dim>1</dim>
					<dim>-1</dim>
				</port>
				<port id="1" precision="I64">
					<dim>4</dim>
				</port>
			</input>
			<output>
				<port id="2" precision="I64" names="37">
					<dim>-1</dim>
					<dim>1</dim>
					<dim>-1</dim>
					<dim>-1</dim>
				</port>
			</output>
		</layer>
		<layer id="105" name="aten::to/Convert" type="Convert" version="opset1">
			<data destination_type="f32" />
			<input>
				<port id="0" precision="I64">
					<dim>-1</dim>
					<dim>1</dim>
					<dim>-1</dim>
					<dim>-1</dim>
				</port>
			</input>
			<output>
				<port id="1" precision="FP32" names="42">
					<dim>-1</dim>
					<dim>1</dim>
					<dim>-1</dim>
					<dim>-1</dim>
				</port>
			</output>
		</layer>
		<layer id="106" name="Constant_62558" type="Const" version="opset1">
			<data element_type="f32" shape="1, 1, 1, 1" offset="35091808" size="4" />
			<output>
				<port id="0" precision="FP32">
					<dim>1</dim>
					<dim>1</dim>
					<dim>1</dim>
					<dim>1</dim>
				</port>
			</output>
		</layer>
		<layer id="107" name="aten::rsub/Multiply" type="Multiply" version="opset1">
			<data auto_broadcast="numpy" />
			<input>
				<port id="0" precision="FP32">
					<dim>-1</dim>
					<dim>1</dim>
					<dim>-1</dim>
					<dim>-1</dim>
				</port>
				<port id="1" precision="FP32">
					<dim>1</dim>
					<dim>1</dim>
					<dim>1</dim>
					<dim>1</dim>
				</port>
			</input>
			<output>
				<port id="2" precision="FP32">
					<dim>-1</dim>
					<dim>1</dim>
					<dim>-1</dim>
					<dim>-1</dim>
				</port>
			</output>
		</layer>
		<layer id="108" name="aten::rsub/Subtract" type="Subtract" version="opset1">
			<data auto_broadcast="numpy" />
			<input>
				<port id="0" precision="FP32">
					<dim>1</dim>
					<dim>1</dim>
					<dim>1</dim>
					<dim>1</dim>
				</port>
				<port id="1" precision="FP32">
					<dim>-1</dim>
					<dim>1</dim>
					<dim>-1</dim>
					<dim>-1</dim>
				</port>
			</input>
			<output>
				<port id="2" precision="FP32" names="45,inverted_mask">
					<dim>-1</dim>
					<dim>1</dim>
					<dim>-1</dim>
					<dim>-1</dim>
				</port>
			</output>
		</layer>
		<layer id="109" name="aten::to/Convert_1" type="Convert" version="opset1">
			<data destination_type="boolean" />
			<input>
				<port id="0" precision="FP32">
					<dim>-1</dim>
					<dim>1</dim>
					<dim>-1</dim>
					<dim>-1</dim>
				</port>
			</input>
			<output>
				<port id="1" precision="BOOL" names="50">
					<dim>-1</dim>
					<dim>1</dim>
					<dim>-1</dim>
					<dim>-1</dim>
				</port>
			</output>
		</layer>
		<layer id="110" name="aten::masked_fill/ConvertLike" type="Const" version="opset1">
			<data element_type="f32" shape="" offset="35091836" size="4" />
			<output>
				<port id="0" precision="FP32" />
			</output>
		</layer>
		<layer id="111" name="aten::masked_fill/Select" type="Select" version="opset1">
			<data auto_broadcast="numpy" />
			<input>
				<port id="0" precision="BOOL">
					<dim>-1</dim>
					<dim>1</dim>
					<dim>-1</dim>
					<dim>-1</dim>
				</port>
				<port id="1" precision="FP32" />
				<port id="2" precision="FP32">
					<dim>-1</dim>
					<dim>1</dim>
					<dim>-1</dim>
					<dim>-1</dim>
				</port>
			</input>
			<output>
				<port id="3" precision="FP32" names="52">
					<dim>-1</dim>
					<dim>1</dim>
					<dim>-1</dim>
					<dim>-1</dim>
				</port>
			</output>
		</layer>
		<layer id="112" name="__module.encoder.layer.0.attention.self/aten::scaled_dot_product_attention/ScaledDotProductAttention" type="ScaledDotProductAttention" version="opset13">
			<data causal="false" />
			<input>
				<port id="0" precision="FP32">
					<dim>-1</dim>
					<dim>16</dim>
					<dim>-1</dim>
					<dim>64</dim>
				</port>
				<port id="1" precision="FP32">
					<dim>-1</dim>
					<dim>16</dim>
					<dim>-1</dim>
					<dim>64</dim>
				</port>
				<port id="2" precision="FP32">
					<dim>-1</dim>
					<dim>16</dim>
					<dim>-1</dim>
					<dim>64</dim>
				</port>
				<port id="3" precision="FP32">
					<dim>-1</dim>
					<dim>1</dim>
					<dim>-1</dim>
					<dim>-1</dim>
				</port>
			</input>
			<output>
				<port id="4" precision="FP32" names="190,attn_output.1">
					<dim>-1</dim>
					<dim>16</dim>
					<dim>-1</dim>
					<dim>64</dim>
				</port>
			</output>
		</layer>
		<layer id="113" name="__module.encoder.layer.0.attention.self/aten::transpose/ScatterElementsUpdate" type="Const" version="opset1">
			<data element_type="i32" shape="4" offset="35091840" size="16" />
			<output>
				<port id="0" precision="I32">
					<dim>4</dim>
				</port>
			</output>
		</layer>
		<layer id="114" name="__module.encoder.layer.0.attention.self/aten::transpose/Transpose" type="Transpose" version="opset1">
			<input>
				<port id="0" precision="FP32">
					<dim>-1</dim>
					<dim>16</dim>
					<dim>-1</dim>
					<dim>64</dim>
				</port>
				<port id="1" precision="I32">
					<dim>4</dim>
				</port>
			</input>
			<output>
				<port id="2" precision="FP32" names="191,attn_output.3">
					<dim>-1</dim>
					<dim>-1</dim>
					<dim>16</dim>
					<dim>64</dim>
				</port>
			</output>
		</layer>
		<layer id="115" name="Constant_63003" type="Const" version="opset1">
			<data element_type="i64" shape="3" offset="35091856" size="24" />
			<output>
				<port id="0" precision="I64">
					<dim>3</dim>
				</port>
			</output>
		</layer>
		<layer id="116" name="__module.encoder.layer.0.attention.self/aten::reshape/Reshape" type="Reshape" version="opset1">
			<data special_zero="true" />
			<input>
				<port id="0" precision="FP32">
					<dim>-1</dim>
					<dim>-1</dim>
					<dim>16</dim>
					<dim>64</dim>
				</port>
				<port id="1" precision="I64">
					<dim>3</dim>
				</port>
			</input>
			<output>
				<port id="2" precision="FP32" names="193">
					<dim>-1</dim>
					<dim>-1</dim>
					<dim>1024</dim>
				</port>
			</output>
		</layer>
		<layer id="117" name="__module.encoder.layer.0.attention.self/aten::reshape/Reshape_0_0/nncf_smooth_quant/scale" type="Const" version="opset1">
			<data element_type="f32" shape="1, 1, 1024" offset="35091880" size="4096" />
			<output>
				<port id="0" precision="FP32">
					<dim>1</dim>
					<dim>1</dim>
					<dim>1024</dim>
				</port>
			</output>
		</layer>
		<layer id="118" name="__module.encoder.layer.0.attention.self/aten::reshape/Reshape_0_0/nncf_smooth_quant" type="Multiply" version="opset1">
			<data auto_broadcast="numpy" />
			<input>
				<port id="0" precision="FP32">
					<dim>-1</dim>
					<dim>-1</dim>
					<dim>1024</dim>
				</port>
				<port id="1" precision="FP32">
					<dim>1</dim>
					<dim>1</dim>
					<dim>1024</dim>
				</port>
			</input>
			<output>
				<port id="2" precision="FP32">
					<dim>-1</dim>
					<dim>-1</dim>
					<dim>1024</dim>
				</port>
			</output>
		</layer>
		<layer id="119" name="__module.encoder.layer.0.attention.self/aten::reshape/Reshape_0_0/nncf_smooth_quant/fq_output_0/input_low" type="Const" version="opset1">
			<data element_type="f32" shape="" offset="35095976" size="4" />
			<output>
				<port id="0" precision="FP32" />
			</output>
		</layer>
		<layer id="120" name="__module.encoder.layer.0.attention.self/aten::reshape/Reshape_0_0/nncf_smooth_quant/fq_output_0/input_high" type="Const" version="opset1">
			<data element_type="f32" shape="" offset="35095980" size="4" />
			<output>
				<port id="0" precision="FP32" />
			</output>
		</layer>
		<layer id="121" name="__module.encoder.layer.0.attention.self/aten::reshape/Reshape_0_0/nncf_smooth_quant/fq_output_0/output_low" type="Const" version="opset1">
			<data element_type="f32" shape="" offset="35095976" size="4" />
			<output>
				<port id="0" precision="FP32" />
			</output>
		</layer>
		<layer id="122" name="__module.encoder.layer.0.attention.self/aten::reshape/Reshape_0_0/nncf_smooth_quant/fq_output_0/output_high" type="Const" version="opset1">
			<data element_type="f32" shape="" offset="35095980" size="4" />
			<output>
				<port id="0" precision="FP32" />
			</output>
		</layer>
		<layer id="123" name="__module.encoder.layer.0.attention.self/aten::reshape/Reshape_0_0/nncf_smooth_quant/fq_output_0" type="FakeQuantize" version="opset1">
			<data levels="256" auto_broadcast="numpy" />
			<input>
				<port id="0" precision="FP32">
					<dim>-1</dim>
					<dim>-1</dim>
					<dim>1024</dim>
				</port>
				<port id="1" precision="FP32" />
				<port id="2" precision="FP32" />
				<port id="3" precision="FP32" />
				<port id="4" precision="FP32" />
			</input>
			<output>
				<port id="5" precision="FP32">
					<dim>-1</dim>
					<dim>-1</dim>
					<dim>1024</dim>
				</port>
			</output>
		</layer>
		<layer id="124" name="Constant_1157251" type="Const" version="opset1">
			<data element_type="i8" shape="1024, 1024" offset="35095984" size="1048576" />
			<output>
				<port id="0" precision="I8">
					<dim>1024</dim>
					<dim>1024</dim>
				</port>
			</output>
		</layer>
		<layer id="125" name="Convert_1157252" type="Convert" version="opset1">
			<data destination_type="f32" />
			<input>
				<port id="0" precision="I8">
					<dim>1024</dim>
					<dim>1024</dim>
				</port>
			</input>
			<output>
				<port id="1" precision="FP32">
					<dim>1024</dim>
					<dim>1024</dim>
				</port>
			</output>
		</layer>
		<layer id="126" name="Constant_1157253" type="Const" version="opset1">
			<data element_type="f32" shape="1024, 1" offset="36144560" size="4096" />
			<output>
				<port id="0" precision="FP32">
					<dim>1024</dim>
					<dim>1</dim>
				</port>
			</output>
		</layer>
		<layer id="127" name="__module.encoder.layer.0.attention.output.dense/aten::linear/MatMul/fq_weights_1" type="Multiply" version="opset1">
			<data auto_broadcast="numpy" />
			<input>
				<port id="0" precision="FP32">
					<dim>1024</dim>
					<dim>1024</dim>
				</port>
				<port id="1" precision="FP32">
					<dim>1024</dim>
					<dim>1</dim>
				</port>
			</input>
			<output>
				<port id="2" precision="FP32">
					<dim>1024</dim>
					<dim>1024</dim>
				</port>
			</output>
		</layer>
		<layer id="128" name="__module.encoder.layer.0.attention.output.dense/aten::linear/MatMul" type="MatMul" version="opset1">
			<data transpose_a="false" transpose_b="true" />
			<input>
				<port id="0" precision="FP32">
					<dim>-1</dim>
					<dim>-1</dim>
					<dim>1024</dim>
				</port>
				<port id="1" precision="FP32">
					<dim>1024</dim>
					<dim>1024</dim>
				</port>
			</input>
			<output>
				<port id="2" precision="FP32">
					<dim>-1</dim>
					<dim>-1</dim>
					<dim>1024</dim>
				</port>
			</output>
		</layer>
		<layer id="129" name="Constant_62560" type="Const" version="opset1">
			<data element_type="f32" shape="1, 1, 1024" offset="36148656" size="4096" />
			<output>
				<port id="0" precision="FP32">
					<dim>1</dim>
					<dim>1</dim>
					<dim>1024</dim>
				</port>
			</output>
		</layer>
		<layer id="130" name="__module.encoder.layer.0.attention.output.dense/aten::linear/Add" type="Add" version="opset1">
			<data auto_broadcast="numpy" />
			<input>
				<port id="0" precision="FP32">
					<dim>-1</dim>
					<dim>-1</dim>
					<dim>1024</dim>
				</port>
				<port id="1" precision="FP32">
					<dim>1</dim>
					<dim>1</dim>
					<dim>1024</dim>
				</port>
			</input>
			<output>
				<port id="2" precision="FP32" names="199,input.3">
					<dim>-1</dim>
					<dim>-1</dim>
					<dim>1024</dim>
				</port>
			</output>
		</layer>
		<layer id="131" name="__module.encoder.layer.0.attention.output/aten::add/Add" type="Add" version="opset1">
			<data auto_broadcast="numpy" />
			<input>
				<port id="0" precision="FP32">
					<dim>-1</dim>
					<dim>-1</dim>
					<dim>1024</dim>
				</port>
				<port id="1" precision="FP32">
					<dim>-1</dim>
					<dim>-1</dim>
					<dim>1024</dim>
				</port>
			</input>
			<output>
				<port id="2" precision="FP32" names="201">
					<dim>-1</dim>
					<dim>-1</dim>
					<dim>1024</dim>
				</port>
			</output>
		</layer>
		<layer id="132" name="__module.encoder.layer.0.attention.output.LayerNorm/aten::layer_norm/Multiply" type="Const" version="opset1">
			<data element_type="i32" shape="1" offset="31909124" size="4" />
			<output>
				<port id="0" precision="I32">
					<dim>1</dim>
				</port>
			</output>
		</layer>
		<layer id="133" name="__module.encoder.layer.0.attention.output.LayerNorm/aten::layer_norm/MVN" type="MVN" version="opset6">
			<data eps="9.999999960041972e-13" normalize_variance="true" eps_mode="INSIDE_SQRT" />
			<input>
				<port id="0" precision="FP32">
					<dim>-1</dim>
					<dim>-1</dim>
					<dim>1024</dim>
				</port>
				<port id="1" precision="I32">
					<dim>1</dim>
				</port>
			</input>
			<output>
				<port id="2" precision="FP32">
					<dim>-1</dim>
					<dim>-1</dim>
					<dim>1024</dim>
				</port>
			</output>
		</layer>
		<layer id="134" name="Constant_62561" type="Const" version="opset1">
			<data element_type="f32" shape="1, 1, 1024" offset="36152752" size="4096" />
			<output>
				<port id="0" precision="FP32">
					<dim>1</dim>
					<dim>1</dim>
					<dim>1024</dim>
				</port>
			</output>
		</layer>
		<layer id="135" name="__module.encoder.layer.0.attention.output.LayerNorm/aten::layer_norm/Multiply_1" type="Multiply" version="opset1">
			<data auto_broadcast="numpy" />
			<input>
				<port id="0" precision="FP32">
					<dim>-1</dim>
					<dim>-1</dim>
					<dim>1024</dim>
				</port>
				<port id="1" precision="FP32">
					<dim>1</dim>
					<dim>1</dim>
					<dim>1024</dim>
				</port>
			</input>
			<output>
				<port id="2" precision="FP32">
					<dim>-1</dim>
					<dim>-1</dim>
					<dim>1024</dim>
				</port>
			</output>
		</layer>
		<layer id="136" name="Constant_62562" type="Const" version="opset1">
			<data element_type="f32" shape="1, 1, 1024" offset="36156848" size="4096" />
			<output>
				<port id="0" precision="FP32">
					<dim>1</dim>
					<dim>1</dim>
					<dim>1024</dim>
				</port>
			</output>
		</layer>
		<layer id="137" name="__module.encoder.layer.0.attention.output.LayerNorm/aten::layer_norm/Add" type="Add" version="opset1">
			<data auto_broadcast="numpy" />
			<input>
				<port id="0" precision="FP32">
					<dim>-1</dim>
					<dim>-1</dim>
					<dim>1024</dim>
				</port>
				<port id="1" precision="FP32">
					<dim>1</dim>
					<dim>1</dim>
					<dim>1024</dim>
				</port>
			</input>
			<output>
				<port id="2" precision="FP32" names="205,input_tensor.1">
					<dim>-1</dim>
					<dim>-1</dim>
					<dim>1024</dim>
				</port>
			</output>
		</layer>
		<layer id="138" name="__module.encoder.layer.0.attention.output.LayerNorm/aten::layer_norm/Add_0_0/nncf_smooth_quant/scale" type="Const" version="opset1">
			<data element_type="f32" shape="1, 1, 1024" offset="36160944" size="4096" />
			<output>
				<port id="0" precision="FP32">
					<dim>1</dim>
					<dim>1</dim>
					<dim>1024</dim>
				</port>
			</output>
		</layer>
		<layer id="139" name="__module.encoder.layer.0.attention.output.LayerNorm/aten::layer_norm/Add_0_0/nncf_smooth_quant" type="Multiply" version="opset1">
			<data auto_broadcast="numpy" />
			<input>
				<port id="0" precision="FP32">
					<dim>-1</dim>
					<dim>-1</dim>
					<dim>1024</dim>
				</port>
				<port id="1" precision="FP32">
					<dim>1</dim>
					<dim>1</dim>
					<dim>1024</dim>
				</port>
			</input>
			<output>
				<port id="2" precision="FP32">
					<dim>-1</dim>
					<dim>-1</dim>
					<dim>1024</dim>
				</port>
			</output>
		</layer>
		<layer id="140" name="__module.encoder.layer.0.attention.output.LayerNorm/aten::layer_norm/Add_0_0/nncf_smooth_quant/fq_output_0/input_low" type="Const" version="opset1">
			<data element_type="f32" shape="" offset="36165040" size="4" />
			<output>
				<port id="0" precision="FP32" />
			</output>
		</layer>
		<layer id="141" name="__module.encoder.layer.0.attention.output.LayerNorm/aten::layer_norm/Add_0_0/nncf_smooth_quant/fq_output_0/input_high" type="Const" version="opset1">
			<data element_type="f32" shape="" offset="36165044" size="4" />
			<output>
				<port id="0" precision="FP32" />
			</output>
		</layer>
		<layer id="142" name="__module.encoder.layer.0.attention.output.LayerNorm/aten::layer_norm/Add_0_0/nncf_smooth_quant/fq_output_0/output_low" type="Const" version="opset1">
			<data element_type="f32" shape="" offset="36165040" size="4" />
			<output>
				<port id="0" precision="FP32" />
			</output>
		</layer>
		<layer id="143" name="__module.encoder.layer.0.attention.output.LayerNorm/aten::layer_norm/Add_0_0/nncf_smooth_quant/fq_output_0/output_high" type="Const" version="opset1">
			<data element_type="f32" shape="" offset="36165044" size="4" />
			<output>
				<port id="0" precision="FP32" />
			</output>
		</layer>
		<layer id="144" name="__module.encoder.layer.0.attention.output.LayerNorm/aten::layer_norm/Add_0_0/nncf_smooth_quant/fq_output_0" type="FakeQuantize" version="opset1">
			<data levels="256" auto_broadcast="numpy" />
			<input>
				<port id="0" precision="FP32">
					<dim>-1</dim>
					<dim>-1</dim>
					<dim>1024</dim>
				</port>
				<port id="1" precision="FP32" />
				<port id="2" precision="FP32" />
				<port id="3" precision="FP32" />
				<port id="4" precision="FP32" />
			</input>
			<output>
				<port id="5" precision="FP32">
					<dim>-1</dim>
					<dim>-1</dim>
					<dim>1024</dim>
				</port>
			</output>
		</layer>
		<layer id="145" name="Constant_1157255" type="Const" version="opset1">
			<data element_type="i8" shape="4096, 1024" offset="36165048" size="4194304" />
			<output>
				<port id="0" precision="I8">
					<dim>4096</dim>
					<dim>1024</dim>
				</port>
			</output>
		</layer>
		<layer id="146" name="Convert_1157256" type="Convert" version="opset1">
			<data destination_type="f32" />
			<input>
				<port id="0" precision="I8">
					<dim>4096</dim>
					<dim>1024</dim>
				</port>
			</input>
			<output>
				<port id="1" precision="FP32">
					<dim>4096</dim>
					<dim>1024</dim>
				</port>
			</output>
		</layer>
		<layer id="147" name="Constant_1157257" type="Const" version="opset1">
			<data element_type="f32" shape="4096, 1" offset="40359352" size="16384" />
			<output>
				<port id="0" precision="FP32">
					<dim>4096</dim>
					<dim>1</dim>
				</port>
			</output>
		</layer>
		<layer id="148" name="__module.encoder.layer.0.intermediate.dense/aten::linear/MatMul/fq_weights_1" type="Multiply" version="opset1">
			<data auto_broadcast="numpy" />
			<input>
				<port id="0" precision="FP32">
					<dim>4096</dim>
					<dim>1024</dim>
				</port>
				<port id="1" precision="FP32">
					<dim>4096</dim>
					<dim>1</dim>
				</port>
			</input>
			<output>
				<port id="2" precision="FP32">
					<dim>4096</dim>
					<dim>1024</dim>
				</port>
			</output>
		</layer>
		<layer id="149" name="__module.encoder.layer.0.intermediate.dense/aten::linear/MatMul" type="MatMul" version="opset1">
			<data transpose_a="false" transpose_b="true" />
			<input>
				<port id="0" precision="FP32">
					<dim>-1</dim>
					<dim>-1</dim>
					<dim>1024</dim>
				</port>
				<port id="1" precision="FP32">
					<dim>4096</dim>
					<dim>1024</dim>
				</port>
			</input>
			<output>
				<port id="2" precision="FP32">
					<dim>-1</dim>
					<dim>-1</dim>
					<dim>4096</dim>
				</port>
			</output>
		</layer>
		<layer id="150" name="Constant_62563" type="Const" version="opset1">
			<data element_type="f32" shape="1, 1, 4096" offset="40375736" size="16384" />
			<output>
				<port id="0" precision="FP32">
					<dim>1</dim>
					<dim>1</dim>
					<dim>4096</dim>
				</port>
			</output>
		</layer>
		<layer id="151" name="__module.encoder.layer.0.intermediate.dense/aten::linear/Add" type="Add" version="opset1">
			<data auto_broadcast="numpy" />
			<input>
				<port id="0" precision="FP32">
					<dim>-1</dim>
					<dim>-1</dim>
					<dim>4096</dim>
				</port>
				<port id="1" precision="FP32">
					<dim>1</dim>
					<dim>1</dim>
					<dim>4096</dim>
				</port>
			</input>
			<output>
				<port id="2" precision="FP32" names="210">
					<dim>-1</dim>
					<dim>-1</dim>
					<dim>4096</dim>
				</port>
			</output>
		</layer>
		<layer id="152" name="__module.encoder.layer.0.intermediate.intermediate_act_fn/aten::gelu/Gelu" type="Gelu" version="opset7">
			<data approximation_mode="ERF" />
			<input>
				<port id="0" precision="FP32">
					<dim>-1</dim>
					<dim>-1</dim>
					<dim>4096</dim>
				</port>
			</input>
			<output>
				<port id="1" precision="FP32" names="211">
					<dim>-1</dim>
					<dim>-1</dim>
					<dim>4096</dim>
				</port>
			</output>
		</layer>
		<layer id="153" name="__module.encoder.layer.0.intermediate.intermediate_act_fn/aten::gelu/Gelu_0_0/nncf_smooth_quant/scale" type="Const" version="opset1">
			<data element_type="f32" shape="1, 1, 4096" offset="40392120" size="16384" />
			<output>
				<port id="0" precision="FP32">
					<dim>1</dim>
					<dim>1</dim>
					<dim>4096</dim>
				</port>
			</output>
		</layer>
		<layer id="154" name="__module.encoder.layer.0.intermediate.intermediate_act_fn/aten::gelu/Gelu_0_0/nncf_smooth_quant" type="Multiply" version="opset1">
			<data auto_broadcast="numpy" />
			<input>
				<port id="0" precision="FP32">
					<dim>-1</dim>
					<dim>-1</dim>
					<dim>4096</dim>
				</port>
				<port id="1" precision="FP32">
					<dim>1</dim>
					<dim>1</dim>
					<dim>4096</dim>
				</port>
			</input>
			<output>
				<port id="2" precision="FP32">
					<dim>-1</dim>
					<dim>-1</dim>
					<dim>4096</dim>
				</port>
			</output>
		</layer>
		<layer id="155" name="__module.encoder.layer.0.intermediate.intermediate_act_fn/aten::gelu/Gelu_0_0/nncf_smooth_quant/fq_output_0/input_low" type="Const" version="opset1">
			<data element_type="f32" shape="" offset="40408504" size="4" />
			<output>
				<port id="0" precision="FP32" />
			</output>
		</layer>
		<layer id="156" name="__module.encoder.layer.0.intermediate.intermediate_act_fn/aten::gelu/Gelu_0_0/nncf_smooth_quant/fq_output_0/input_high" type="Const" version="opset1">
			<data element_type="f32" shape="" offset="40408508" size="4" />
			<output>
				<port id="0" precision="FP32" />
			</output>
		</layer>
		<layer id="157" name="__module.encoder.layer.0.intermediate.intermediate_act_fn/aten::gelu/Gelu_0_0/nncf_smooth_quant/fq_output_0/output_low" type="Const" version="opset1">
			<data element_type="f32" shape="" offset="40408504" size="4" />
			<output>
				<port id="0" precision="FP32" />
			</output>
		</layer>
		<layer id="158" name="__module.encoder.layer.0.intermediate.intermediate_act_fn/aten::gelu/Gelu_0_0/nncf_smooth_quant/fq_output_0/output_high" type="Const" version="opset1">
			<data element_type="f32" shape="" offset="40408508" size="4" />
			<output>
				<port id="0" precision="FP32" />
			</output>
		</layer>
		<layer id="159" name="__module.encoder.layer.0.intermediate.intermediate_act_fn/aten::gelu/Gelu_0_0/nncf_smooth_quant/fq_output_0" type="FakeQuantize" version="opset1">
			<data levels="256" auto_broadcast="numpy" />
			<input>
				<port id="0" precision="FP32">
					<dim>-1</dim>
					<dim>-1</dim>
					<dim>4096</dim>
				</port>
				<port id="1" precision="FP32" />
				<port id="2" precision="FP32" />
				<port id="3" precision="FP32" />
				<port id="4" precision="FP32" />
			</input>
			<output>
				<port id="5" precision="FP32">
					<dim>-1</dim>
					<dim>-1</dim>
					<dim>4096</dim>
				</port>
			</output>
		</layer>
		<layer id="160" name="Constant_1157259" type="Const" version="opset1">
			<data element_type="i8" shape="1024, 4096" offset="40408512" size="4194304" />
			<output>
				<port id="0" precision="I8">
					<dim>1024</dim>
					<dim>4096</dim>
				</port>
			</output>
		</layer>
		<layer id="161" name="Convert_1157260" type="Convert" version="opset1">
			<data destination_type="f32" />
			<input>
				<port id="0" precision="I8">
					<dim>1024</dim>
					<dim>4096</dim>
				</port>
			</input>
			<output>
				<port id="1" precision="FP32">
					<dim>1024</dim>
					<dim>4096</dim>
				</port>
			</output>
		</layer>
		<layer id="162" name="Constant_1157261" type="Const" version="opset1">
			<data element_type="f32" shape="1024, 1" offset="44602816" size="4096" />
			<output>
				<port id="0" precision="FP32">
					<dim>1024</dim>
					<dim>1</dim>
				</port>
			</output>
		</layer>
		<layer id="163" name="__module.encoder.layer.0.output.dense/aten::linear/MatMul/fq_weights_1" type="Multiply" version="opset1">
			<data auto_broadcast="numpy" />
			<input>
				<port id="0" precision="FP32">
					<dim>1024</dim>
					<dim>4096</dim>
				</port>
				<port id="1" precision="FP32">
					<dim>1024</dim>
					<dim>1</dim>
				</port>
			</input>
			<output>
				<port id="2" precision="FP32">
					<dim>1024</dim>
					<dim>4096</dim>
				</port>
			</output>
		</layer>
		<layer id="164" name="__module.encoder.layer.0.output.dense/aten::linear/MatMul" type="MatMul" version="opset1">
			<data transpose_a="false" transpose_b="true" />
			<input>
				<port id="0" precision="FP32">
					<dim>-1</dim>
					<dim>-1</dim>
					<dim>4096</dim>
				</port>
				<port id="1" precision="FP32">
					<dim>1024</dim>
					<dim>4096</dim>
				</port>
			</input>
			<output>
				<port id="2" precision="FP32">
					<dim>-1</dim>
					<dim>-1</dim>
					<dim>1024</dim>
				</port>
			</output>
		</layer>
		<layer id="165" name="Constant_62564" type="Const" version="opset1">
			<data element_type="f32" shape="1, 1, 1024" offset="44606912" size="4096" />
			<output>
				<port id="0" precision="FP32">
					<dim>1</dim>
					<dim>1</dim>
					<dim>1024</dim>
				</port>
			</output>
		</layer>
		<layer id="166" name="__module.encoder.layer.0.output.dense/aten::linear/Add" type="Add" version="opset1">
			<data auto_broadcast="numpy" />
			<input>
				<port id="0" precision="FP32">
					<dim>-1</dim>
					<dim>-1</dim>
					<dim>1024</dim>
				</port>
				<port id="1" precision="FP32">
					<dim>1</dim>
					<dim>1</dim>
					<dim>1024</dim>
				</port>
			</input>
			<output>
				<port id="2" precision="FP32" names="217,input.5">
					<dim>-1</dim>
					<dim>-1</dim>
					<dim>1024</dim>
				</port>
			</output>
		</layer>
		<layer id="167" name="__module.encoder.layer.0.output/aten::add/Add" type="Add" version="opset1">
			<data auto_broadcast="numpy" />
			<input>
				<port id="0" precision="FP32">
					<dim>-1</dim>
					<dim>-1</dim>
					<dim>1024</dim>
				</port>
				<port id="1" precision="FP32">
					<dim>-1</dim>
					<dim>-1</dim>
					<dim>1024</dim>
				</port>
			</input>
			<output>
				<port id="2" precision="FP32" names="219">
					<dim>-1</dim>
					<dim>-1</dim>
					<dim>1024</dim>
				</port>
			</output>
		</layer>
		<layer id="168" name="__module.encoder.layer.0.output.LayerNorm/aten::layer_norm/Multiply" type="Const" version="opset1">
			<data element_type="i32" shape="1" offset="31909124" size="4" />
			<output>
				<port id="0" precision="I32">
					<dim>1</dim>
				</port>
			</output>
		</layer>
		<layer id="169" name="__module.encoder.layer.0.output.LayerNorm/aten::layer_norm/MVN" type="MVN" version="opset6">
			<data eps="9.999999960041972e-13" normalize_variance="true" eps_mode="INSIDE_SQRT" />
			<input>
				<port id="0" precision="FP32">
					<dim>-1</dim>
					<dim>-1</dim>
					<dim>1024</dim>
				</port>
				<port id="1" precision="I32">
					<dim>1</dim>
				</port>
			</input>
			<output>
				<port id="2" precision="FP32">
					<dim>-1</dim>
					<dim>-1</dim>
					<dim>1024</dim>
				</port>
			</output>
		</layer>
		<layer id="170" name="Constant_62565" type="Const" version="opset1">
			<data element_type="f32" shape="1, 1, 1024" offset="44611008" size="4096" />
			<output>
				<port id="0" precision="FP32">
					<dim>1</dim>
					<dim>1</dim>
					<dim>1024</dim>
				</port>
			</output>
		</layer>
		<layer id="171" name="__module.encoder.layer.0.output.LayerNorm/aten::layer_norm/Multiply_1" type="Multiply" version="opset1">
			<data auto_broadcast="numpy" />
			<input>
				<port id="0" precision="FP32">
					<dim>-1</dim>
					<dim>-1</dim>
					<dim>1024</dim>
				</port>
				<port id="1" precision="FP32">
					<dim>1</dim>
					<dim>1</dim>
					<dim>1024</dim>
				</port>
			</input>
			<output>
				<port id="2" precision="FP32">
					<dim>-1</dim>
					<dim>-1</dim>
					<dim>1024</dim>
				</port>
			</output>
		</layer>
		<layer id="172" name="Constant_62566" type="Const" version="opset1">
			<data element_type="f32" shape="1, 1, 1024" offset="44615104" size="4096" />
			<output>
				<port id="0" precision="FP32">
					<dim>1</dim>
					<dim>1</dim>
					<dim>1024</dim>
				</port>
			</output>
		</layer>
		<layer id="173" name="__module.encoder.layer.0.output.LayerNorm/aten::layer_norm/Add" type="Add" version="opset1">
			<data auto_broadcast="numpy" />
			<input>
				<port id="0" precision="FP32">
					<dim>-1</dim>
					<dim>-1</dim>
					<dim>1024</dim>
				</port>
				<port id="1" precision="FP32">
					<dim>1</dim>
					<dim>1</dim>
					<dim>1024</dim>
				</port>
			</input>
			<output>
				<port id="2" precision="FP32" names="223,hidden_states.7">
					<dim>-1</dim>
					<dim>-1</dim>
					<dim>1024</dim>
				</port>
			</output>
		</layer>
		<layer id="174" name="__module.encoder.layer.0.output.LayerNorm/aten::layer_norm/Add_0_0/nncf_smooth_quant/scale" type="Const" version="opset1">
			<data element_type="f32" shape="1, 1, 1024" offset="44619200" size="4096" />
			<output>
				<port id="0" precision="FP32">
					<dim>1</dim>
					<dim>1</dim>
					<dim>1024</dim>
				</port>
			</output>
		</layer>
		<layer id="175" name="__module.encoder.layer.0.output.LayerNorm/aten::layer_norm/Add_0_0/nncf_smooth_quant" type="Multiply" version="opset1">
			<data auto_broadcast="numpy" />
			<input>
				<port id="0" precision="FP32">
					<dim>-1</dim>
					<dim>-1</dim>
					<dim>1024</dim>
				</port>
				<port id="1" precision="FP32">
					<dim>1</dim>
					<dim>1</dim>
					<dim>1024</dim>
				</port>
			</input>
			<output>
				<port id="2" precision="FP32">
					<dim>-1</dim>
					<dim>-1</dim>
					<dim>1024</dim>
				</port>
			</output>
		</layer>
		<layer id="176" name="__module.encoder.layer.0.output.LayerNorm/aten::layer_norm/Add_0_0/nncf_smooth_quant/fq_output_0/input_low" type="Const" version="opset1">
			<data element_type="f32" shape="" offset="44623296" size="4" />
			<output>
				<port id="0" precision="FP32" />
			</output>
		</layer>
		<layer id="177" name="__module.encoder.layer.0.output.LayerNorm/aten::layer_norm/Add_0_0/nncf_smooth_quant/fq_output_0/input_high" type="Const" version="opset1">
			<data element_type="f32" shape="" offset="44623300" size="4" />
			<output>
				<port id="0" precision="FP32" />
			</output>
		</layer>
		<layer id="178" name="__module.encoder.layer.0.output.LayerNorm/aten::layer_norm/Add_0_0/nncf_smooth_quant/fq_output_0/output_low" type="Const" version="opset1">
			<data element_type="f32" shape="" offset="44623296" size="4" />
			<output>
				<port id="0" precision="FP32" />
			</output>
		</layer>
		<layer id="179" name="__module.encoder.layer.0.output.LayerNorm/aten::layer_norm/Add_0_0/nncf_smooth_quant/fq_output_0/output_high" type="Const" version="opset1">
			<data element_type="f32" shape="" offset="44623300" size="4" />
			<output>
				<port id="0" precision="FP32" />
			</output>
		</layer>
		<layer id="180" name="__module.encoder.layer.0.output.LayerNorm/aten::layer_norm/Add_0_0/nncf_smooth_quant/fq_output_0" type="FakeQuantize" version="opset1">
			<data levels="256" auto_broadcast="numpy" />
			<input>
				<port id="0" precision="FP32">
					<dim>-1</dim>
					<dim>-1</dim>
					<dim>1024</dim>
				</port>
				<port id="1" precision="FP32" />
				<port id="2" precision="FP32" />
				<port id="3" precision="FP32" />
				<port id="4" precision="FP32" />
			</input>
			<output>
				<port id="5" precision="FP32">
					<dim>-1</dim>
					<dim>-1</dim>
					<dim>1024</dim>
				</port>
			</output>
		</layer>
		<layer id="181" name="Constant_1157263" type="Const" version="opset1">
			<data element_type="i8" shape="1024, 1024" offset="44623304" size="1048576" />
			<output>
				<port id="0" precision="I8">
					<dim>1024</dim>
					<dim>1024</dim>
				</port>
			</output>
		</layer>
		<layer id="182" name="Convert_1157264" type="Convert" version="opset1">
			<data destination_type="f32" />
			<input>
				<port id="0" precision="I8">
					<dim>1024</dim>
					<dim>1024</dim>
				</port>
			</input>
			<output>
				<port id="1" precision="FP32">
					<dim>1024</dim>
					<dim>1024</dim>
				</port>
			</output>
		</layer>
		<layer id="183" name="Constant_1157265" type="Const" version="opset1">
			<data element_type="f32" shape="1024, 1" offset="45671880" size="4096" />
			<output>
				<port id="0" precision="FP32">
					<dim>1024</dim>
					<dim>1</dim>
				</port>
			</output>
		</layer>
		<layer id="184" name="__module.encoder.layer.1.attention.self.query/aten::linear/MatMul/fq_weights_1" type="Multiply" version="opset1">
			<data auto_broadcast="numpy" />
			<input>
				<port id="0" precision="FP32">
					<dim>1024</dim>
					<dim>1024</dim>
				</port>
				<port id="1" precision="FP32">
					<dim>1024</dim>
					<dim>1</dim>
				</port>
			</input>
			<output>
				<port id="2" precision="FP32">
					<dim>1024</dim>
					<dim>1024</dim>
				</port>
			</output>
		</layer>
		<layer id="185" name="__module.encoder.layer.1.attention.self.query/aten::linear/MatMul" type="MatMul" version="opset1">
			<data transpose_a="false" transpose_b="true" />
			<input>
				<port id="0" precision="FP32">
					<dim>-1</dim>
					<dim>-1</dim>
					<dim>1024</dim>
				</port>
				<port id="1" precision="FP32">
					<dim>1024</dim>
					<dim>1024</dim>
				</port>
			</input>
			<output>
				<port id="2" precision="FP32">
					<dim>-1</dim>
					<dim>-1</dim>
					<dim>1024</dim>
				</port>
			</output>
		</layer>
		<layer id="186" name="Constant_62567" type="Const" version="opset1">
			<data element_type="f32" shape="1, 1, 1024" offset="45675976" size="4096" />
			<output>
				<port id="0" precision="FP32">
					<dim>1</dim>
					<dim>1</dim>
					<dim>1024</dim>
				</port>
			</output>
		</layer>
		<layer id="187" name="__module.encoder.layer.1.attention.self.query/aten::linear/Add" type="Add" version="opset1">
			<data auto_broadcast="numpy" />
			<input>
				<port id="0" precision="FP32">
					<dim>-1</dim>
					<dim>-1</dim>
					<dim>1024</dim>
				</port>
				<port id="1" precision="FP32">
					<dim>1</dim>
					<dim>1</dim>
					<dim>1024</dim>
				</port>
			</input>
			<output>
				<port id="2" precision="FP32" names="236,x.13">
					<dim>-1</dim>
					<dim>-1</dim>
					<dim>1024</dim>
				</port>
			</output>
		</layer>
		<layer id="188" name="__module.encoder.layer.1.attention.self.query/aten::linear/Add/fq_output_0/input_low" type="Const" version="opset1">
			<data element_type="f32" shape="" offset="45680072" size="4" />
			<output>
				<port id="0" precision="FP32" />
			</output>
		</layer>
		<layer id="189" name="__module.encoder.layer.1.attention.self.query/aten::linear/Add/fq_output_0/input_high" type="Const" version="opset1">
			<data element_type="f32" shape="" offset="45680076" size="4" />
			<output>
				<port id="0" precision="FP32" />
			</output>
		</layer>
		<layer id="190" name="__module.encoder.layer.1.attention.self.query/aten::linear/Add/fq_output_0/output_low" type="Const" version="opset1">
			<data element_type="f32" shape="" offset="45680072" size="4" />
			<output>
				<port id="0" precision="FP32" />
			</output>
		</layer>
		<layer id="191" name="__module.encoder.layer.1.attention.self.query/aten::linear/Add/fq_output_0/output_high" type="Const" version="opset1">
			<data element_type="f32" shape="" offset="45680076" size="4" />
			<output>
				<port id="0" precision="FP32" />
			</output>
		</layer>
		<layer id="192" name="__module.encoder.layer.1.attention.self.query/aten::linear/Add/fq_output_0" type="FakeQuantize" version="opset1">
			<data levels="256" auto_broadcast="numpy" />
			<input>
				<port id="0" precision="FP32">
					<dim>-1</dim>
					<dim>-1</dim>
					<dim>1024</dim>
				</port>
				<port id="1" precision="FP32" />
				<port id="2" precision="FP32" />
				<port id="3" precision="FP32" />
				<port id="4" precision="FP32" />
			</input>
			<output>
				<port id="5" precision="FP32">
					<dim>-1</dim>
					<dim>-1</dim>
					<dim>1024</dim>
				</port>
			</output>
		</layer>
		<layer id="193" name="__module.encoder.layer.1.attention.self/prim::ListConstruct/Concat" type="Const" version="opset1">
			<data element_type="i64" shape="4" offset="32978200" size="32" />
			<output>
				<port id="0" precision="I64">
					<dim>4</dim>
				</port>
			</output>
		</layer>
		<layer id="194" name="__module.encoder.layer.1.attention.self/aten::view/Reshape" type="Reshape" version="opset1">
			<data special_zero="true" />
			<input>
				<port id="0" precision="FP32">
					<dim>-1</dim>
					<dim>-1</dim>
					<dim>1024</dim>
				</port>
				<port id="1" precision="I64">
					<dim>4</dim>
				</port>
			</input>
			<output>
				<port id="2" precision="FP32" names="240,x.15">
					<dim>-1</dim>
					<dim>-1</dim>
					<dim>16</dim>
					<dim>64</dim>
				</port>
			</output>
		</layer>
		<layer id="195" name="Constant_47388" type="Const" version="opset1">
			<data element_type="i64" shape="4" offset="32978232" size="32" />
			<output>
				<port id="0" precision="I64" names="241">
					<dim>4</dim>
				</port>
			</output>
		</layer>
		<layer id="196" name="__module.encoder.layer.1.attention.self/aten::permute/Transpose" type="Transpose" version="opset1">
			<input>
				<port id="0" precision="FP32">
					<dim>-1</dim>
					<dim>-1</dim>
					<dim>16</dim>
					<dim>64</dim>
				</port>
				<port id="1" precision="I64">
					<dim>4</dim>
				</port>
			</input>
			<output>
				<port id="2" precision="FP32" names="242">
					<dim>-1</dim>
					<dim>16</dim>
					<dim>-1</dim>
					<dim>64</dim>
				</port>
			</output>
		</layer>
		<layer id="197" name="Constant_1157267" type="Const" version="opset1">
			<data element_type="i8" shape="1024, 1024" offset="45680080" size="1048576" />
			<output>
				<port id="0" precision="I8">
					<dim>1024</dim>
					<dim>1024</dim>
				</port>
			</output>
		</layer>
		<layer id="198" name="Convert_1157268" type="Convert" version="opset1">
			<data destination_type="f32" />
			<input>
				<port id="0" precision="I8">
					<dim>1024</dim>
					<dim>1024</dim>
				</port>
			</input>
			<output>
				<port id="1" precision="FP32">
					<dim>1024</dim>
					<dim>1024</dim>
				</port>
			</output>
		</layer>
		<layer id="199" name="Constant_1157269" type="Const" version="opset1">
			<data element_type="f32" shape="1024, 1" offset="46728656" size="4096" />
			<output>
				<port id="0" precision="FP32">
					<dim>1024</dim>
					<dim>1</dim>
				</port>
			</output>
		</layer>
		<layer id="200" name="__module.encoder.layer.1.attention.self.key/aten::linear/MatMul/fq_weights_1" type="Multiply" version="opset1">
			<data auto_broadcast="numpy" />
			<input>
				<port id="0" precision="FP32">
					<dim>1024</dim>
					<dim>1024</dim>
				</port>
				<port id="1" precision="FP32">
					<dim>1024</dim>
					<dim>1</dim>
				</port>
			</input>
			<output>
				<port id="2" precision="FP32">
					<dim>1024</dim>
					<dim>1024</dim>
				</port>
			</output>
		</layer>
		<layer id="201" name="__module.encoder.layer.1.attention.self.key/aten::linear/MatMul" type="MatMul" version="opset1">
			<data transpose_a="false" transpose_b="true" />
			<input>
				<port id="0" precision="FP32">
					<dim>-1</dim>
					<dim>-1</dim>
					<dim>1024</dim>
				</port>
				<port id="1" precision="FP32">
					<dim>1024</dim>
					<dim>1024</dim>
				</port>
			</input>
			<output>
				<port id="2" precision="FP32">
					<dim>-1</dim>
					<dim>-1</dim>
					<dim>1024</dim>
				</port>
			</output>
		</layer>
		<layer id="202" name="Constant_62568" type="Const" version="opset1">
			<data element_type="f32" shape="1, 1, 1024" offset="46732752" size="4096" />
			<output>
				<port id="0" precision="FP32">
					<dim>1</dim>
					<dim>1</dim>
					<dim>1024</dim>
				</port>
			</output>
		</layer>
		<layer id="203" name="__module.encoder.layer.1.attention.self.key/aten::linear/Add" type="Add" version="opset1">
			<data auto_broadcast="numpy" />
			<input>
				<port id="0" precision="FP32">
					<dim>-1</dim>
					<dim>-1</dim>
					<dim>1024</dim>
				</port>
				<port id="1" precision="FP32">
					<dim>1</dim>
					<dim>1</dim>
					<dim>1024</dim>
				</port>
			</input>
			<output>
				<port id="2" precision="FP32" names="245,x.17">
					<dim>-1</dim>
					<dim>-1</dim>
					<dim>1024</dim>
				</port>
			</output>
		</layer>
		<layer id="204" name="__module.encoder.layer.1.attention.self.key/aten::linear/Add/fq_output_0/input_low" type="Const" version="opset1">
			<data element_type="f32" shape="" offset="46736848" size="4" />
			<output>
				<port id="0" precision="FP32" />
			</output>
		</layer>
		<layer id="205" name="__module.encoder.layer.1.attention.self.key/aten::linear/Add/fq_output_0/input_high" type="Const" version="opset1">
			<data element_type="f32" shape="" offset="46736852" size="4" />
			<output>
				<port id="0" precision="FP32" />
			</output>
		</layer>
		<layer id="206" name="__module.encoder.layer.1.attention.self.key/aten::linear/Add/fq_output_0/output_low" type="Const" version="opset1">
			<data element_type="f32" shape="" offset="46736848" size="4" />
			<output>
				<port id="0" precision="FP32" />
			</output>
		</layer>
		<layer id="207" name="__module.encoder.layer.1.attention.self.key/aten::linear/Add/fq_output_0/output_high" type="Const" version="opset1">
			<data element_type="f32" shape="" offset="46736852" size="4" />
			<output>
				<port id="0" precision="FP32" />
			</output>
		</layer>
		<layer id="208" name="__module.encoder.layer.1.attention.self.key/aten::linear/Add/fq_output_0" type="FakeQuantize" version="opset1">
			<data levels="256" auto_broadcast="numpy" />
			<input>
				<port id="0" precision="FP32">
					<dim>-1</dim>
					<dim>-1</dim>
					<dim>1024</dim>
				</port>
				<port id="1" precision="FP32" />
				<port id="2" precision="FP32" />
				<port id="3" precision="FP32" />
				<port id="4" precision="FP32" />
			</input>
			<output>
				<port id="5" precision="FP32">
					<dim>-1</dim>
					<dim>-1</dim>
					<dim>1024</dim>
				</port>
			</output>
		</layer>
		<layer id="209" name="__module.encoder.layer.1.attention.self/prim::ListConstruct/Concat_1" type="Const" version="opset1">
			<data element_type="i64" shape="4" offset="32978200" size="32" />
			<output>
				<port id="0" precision="I64">
					<dim>4</dim>
				</port>
			</output>
		</layer>
		<layer id="210" name="__module.encoder.layer.1.attention.self/aten::view/Reshape_1" type="Reshape" version="opset1">
			<data special_zero="true" />
			<input>
				<port id="0" precision="FP32">
					<dim>-1</dim>
					<dim>-1</dim>
					<dim>1024</dim>
				</port>
				<port id="1" precision="I64">
					<dim>4</dim>
				</port>
			</input>
			<output>
				<port id="2" precision="FP32" names="249,x.19">
					<dim>-1</dim>
					<dim>-1</dim>
					<dim>16</dim>
					<dim>64</dim>
				</port>
			</output>
		</layer>
		<layer id="211" name="Constant_47411" type="Const" version="opset1">
			<data element_type="i64" shape="4" offset="32978232" size="32" />
			<output>
				<port id="0" precision="I64" names="250">
					<dim>4</dim>
				</port>
			</output>
		</layer>
		<layer id="212" name="__module.encoder.layer.1.attention.self/aten::permute/Transpose_1" type="Transpose" version="opset1">
			<input>
				<port id="0" precision="FP32">
					<dim>-1</dim>
					<dim>-1</dim>
					<dim>16</dim>
					<dim>64</dim>
				</port>
				<port id="1" precision="I64">
					<dim>4</dim>
				</port>
			</input>
			<output>
				<port id="2" precision="FP32" names="251">
					<dim>-1</dim>
					<dim>16</dim>
					<dim>-1</dim>
					<dim>64</dim>
				</port>
			</output>
		</layer>
		<layer id="213" name="Constant_1157271" type="Const" version="opset1">
			<data element_type="i8" shape="1024, 1024" offset="46736856" size="1048576" />
			<output>
				<port id="0" precision="I8">
					<dim>1024</dim>
					<dim>1024</dim>
				</port>
			</output>
		</layer>
		<layer id="214" name="Convert_1157272" type="Convert" version="opset1">
			<data destination_type="f32" />
			<input>
				<port id="0" precision="I8">
					<dim>1024</dim>
					<dim>1024</dim>
				</port>
			</input>
			<output>
				<port id="1" precision="FP32">
					<dim>1024</dim>
					<dim>1024</dim>
				</port>
			</output>
		</layer>
		<layer id="215" name="Constant_1157273" type="Const" version="opset1">
			<data element_type="f32" shape="1024, 1" offset="47785432" size="4096" />
			<output>
				<port id="0" precision="FP32">
					<dim>1024</dim>
					<dim>1</dim>
				</port>
			</output>
		</layer>
		<layer id="216" name="__module.encoder.layer.1.attention.self.value/aten::linear/MatMul/fq_weights_1" type="Multiply" version="opset1">
			<data auto_broadcast="numpy" />
			<input>
				<port id="0" precision="FP32">
					<dim>1024</dim>
					<dim>1024</dim>
				</port>
				<port id="1" precision="FP32">
					<dim>1024</dim>
					<dim>1</dim>
				</port>
			</input>
			<output>
				<port id="2" precision="FP32">
					<dim>1024</dim>
					<dim>1024</dim>
				</port>
			</output>
		</layer>
		<layer id="217" name="__module.encoder.layer.1.attention.self.value/aten::linear/MatMul" type="MatMul" version="opset1">
			<data transpose_a="false" transpose_b="true" />
			<input>
				<port id="0" precision="FP32">
					<dim>-1</dim>
					<dim>-1</dim>
					<dim>1024</dim>
				</port>
				<port id="1" precision="FP32">
					<dim>1024</dim>
					<dim>1024</dim>
				</port>
			</input>
			<output>
				<port id="2" precision="FP32">
					<dim>-1</dim>
					<dim>-1</dim>
					<dim>1024</dim>
				</port>
			</output>
		</layer>
		<layer id="218" name="Constant_62569" type="Const" version="opset1">
			<data element_type="f32" shape="1, 1, 1024" offset="47789528" size="4096" />
			<output>
				<port id="0" precision="FP32">
					<dim>1</dim>
					<dim>1</dim>
					<dim>1024</dim>
				</port>
			</output>
		</layer>
		<layer id="219" name="__module.encoder.layer.1.attention.self.value/aten::linear/Add" type="Add" version="opset1">
			<data auto_broadcast="numpy" />
			<input>
				<port id="0" precision="FP32">
					<dim>-1</dim>
					<dim>-1</dim>
					<dim>1024</dim>
				</port>
				<port id="1" precision="FP32">
					<dim>1</dim>
					<dim>1</dim>
					<dim>1024</dim>
				</port>
			</input>
			<output>
				<port id="2" precision="FP32" names="254,x.21">
					<dim>-1</dim>
					<dim>-1</dim>
					<dim>1024</dim>
				</port>
			</output>
		</layer>
		<layer id="220" name="__module.encoder.layer.1.attention.self/prim::ListConstruct/Concat_2" type="Const" version="opset1">
			<data element_type="i64" shape="4" offset="32978200" size="32" />
			<output>
				<port id="0" precision="I64">
					<dim>4</dim>
				</port>
			</output>
		</layer>
		<layer id="221" name="__module.encoder.layer.1.attention.self/aten::view/Reshape_2" type="Reshape" version="opset1">
			<data special_zero="true" />
			<input>
				<port id="0" precision="FP32">
					<dim>-1</dim>
					<dim>-1</dim>
					<dim>1024</dim>
				</port>
				<port id="1" precision="I64">
					<dim>4</dim>
				</port>
			</input>
			<output>
				<port id="2" precision="FP32" names="258,x.23">
					<dim>-1</dim>
					<dim>-1</dim>
					<dim>16</dim>
					<dim>64</dim>
				</port>
			</output>
		</layer>
		<layer id="222" name="Constant_47434" type="Const" version="opset1">
			<data element_type="i64" shape="4" offset="32978232" size="32" />
			<output>
				<port id="0" precision="I64" names="259">
					<dim>4</dim>
				</port>
			</output>
		</layer>
		<layer id="223" name="__module.encoder.layer.1.attention.self/aten::permute/Transpose_2" type="Transpose" version="opset1">
			<input>
				<port id="0" precision="FP32">
					<dim>-1</dim>
					<dim>-1</dim>
					<dim>16</dim>
					<dim>64</dim>
				</port>
				<port id="1" precision="I64">
					<dim>4</dim>
				</port>
			</input>
			<output>
				<port id="2" precision="FP32" names="260">
					<dim>-1</dim>
					<dim>16</dim>
					<dim>-1</dim>
					<dim>64</dim>
				</port>
			</output>
		</layer>
		<layer id="224" name="__module.encoder.layer.1.attention.self/aten::scaled_dot_product_attention/ScaledDotProductAttention" type="ScaledDotProductAttention" version="opset13">
			<data causal="false" />
			<input>
				<port id="0" precision="FP32">
					<dim>-1</dim>
					<dim>16</dim>
					<dim>-1</dim>
					<dim>64</dim>
				</port>
				<port id="1" precision="FP32">
					<dim>-1</dim>
					<dim>16</dim>
					<dim>-1</dim>
					<dim>64</dim>
				</port>
				<port id="2" precision="FP32">
					<dim>-1</dim>
					<dim>16</dim>
					<dim>-1</dim>
					<dim>64</dim>
				</port>
				<port id="3" precision="FP32">
					<dim>-1</dim>
					<dim>1</dim>
					<dim>-1</dim>
					<dim>-1</dim>
				</port>
			</input>
			<output>
				<port id="4" precision="FP32" names="261,attn_output.5">
					<dim>-1</dim>
					<dim>16</dim>
					<dim>-1</dim>
					<dim>64</dim>
				</port>
			</output>
		</layer>
		<layer id="225" name="__module.encoder.layer.1.attention.self/aten::transpose/ScatterElementsUpdate" type="Const" version="opset1">
			<data element_type="i32" shape="4" offset="35091840" size="16" />
			<output>
				<port id="0" precision="I32">
					<dim>4</dim>
				</port>
			</output>
		</layer>
		<layer id="226" name="__module.encoder.layer.1.attention.self/aten::transpose/Transpose" type="Transpose" version="opset1">
			<input>
				<port id="0" precision="FP32">
					<dim>-1</dim>
					<dim>16</dim>
					<dim>-1</dim>
					<dim>64</dim>
				</port>
				<port id="1" precision="I32">
					<dim>4</dim>
				</port>
			</input>
			<output>
				<port id="2" precision="FP32" names="262,attn_output.7">
					<dim>-1</dim>
					<dim>-1</dim>
					<dim>16</dim>
					<dim>64</dim>
				</port>
			</output>
		</layer>
		<layer id="227" name="Constant_63004" type="Const" version="opset1">
			<data element_type="i64" shape="3" offset="35091856" size="24" />
			<output>
				<port id="0" precision="I64">
					<dim>3</dim>
				</port>
			</output>
		</layer>
		<layer id="228" name="__module.encoder.layer.1.attention.self/aten::reshape/Reshape" type="Reshape" version="opset1">
			<data special_zero="true" />
			<input>
				<port id="0" precision="FP32">
					<dim>-1</dim>
					<dim>-1</dim>
					<dim>16</dim>
					<dim>64</dim>
				</port>
				<port id="1" precision="I64">
					<dim>3</dim>
				</port>
			</input>
			<output>
				<port id="2" precision="FP32" names="264">
					<dim>-1</dim>
					<dim>-1</dim>
					<dim>1024</dim>
				</port>
			</output>
		</layer>
		<layer id="229" name="__module.encoder.layer.1.attention.self/aten::reshape/Reshape_0_0/nncf_smooth_quant/scale" type="Const" version="opset1">
			<data element_type="f32" shape="1, 1, 1024" offset="47793624" size="4096" />
			<output>
				<port id="0" precision="FP32">
					<dim>1</dim>
					<dim>1</dim>
					<dim>1024</dim>
				</port>
			</output>
		</layer>
		<layer id="230" name="__module.encoder.layer.1.attention.self/aten::reshape/Reshape_0_0/nncf_smooth_quant" type="Multiply" version="opset1">
			<data auto_broadcast="numpy" />
			<input>
				<port id="0" precision="FP32">
					<dim>-1</dim>
					<dim>-1</dim>
					<dim>1024</dim>
				</port>
				<port id="1" precision="FP32">
					<dim>1</dim>
					<dim>1</dim>
					<dim>1024</dim>
				</port>
			</input>
			<output>
				<port id="2" precision="FP32">
					<dim>-1</dim>
					<dim>-1</dim>
					<dim>1024</dim>
				</port>
			</output>
		</layer>
		<layer id="231" name="__module.encoder.layer.1.attention.self/aten::reshape/Reshape_0_0/nncf_smooth_quant/fq_output_0/input_low" type="Const" version="opset1">
			<data element_type="f32" shape="" offset="47797720" size="4" />
			<output>
				<port id="0" precision="FP32" />
			</output>
		</layer>
		<layer id="232" name="__module.encoder.layer.1.attention.self/aten::reshape/Reshape_0_0/nncf_smooth_quant/fq_output_0/input_high" type="Const" version="opset1">
			<data element_type="f32" shape="" offset="47797724" size="4" />
			<output>
				<port id="0" precision="FP32" />
			</output>
		</layer>
		<layer id="233" name="__module.encoder.layer.1.attention.self/aten::reshape/Reshape_0_0/nncf_smooth_quant/fq_output_0/output_low" type="Const" version="opset1">
			<data element_type="f32" shape="" offset="47797720" size="4" />
			<output>
				<port id="0" precision="FP32" />
			</output>
		</layer>
		<layer id="234" name="__module.encoder.layer.1.attention.self/aten::reshape/Reshape_0_0/nncf_smooth_quant/fq_output_0/output_high" type="Const" version="opset1">
			<data element_type="f32" shape="" offset="47797724" size="4" />
			<output>
				<port id="0" precision="FP32" />
			</output>
		</layer>
		<layer id="235" name="__module.encoder.layer.1.attention.self/aten::reshape/Reshape_0_0/nncf_smooth_quant/fq_output_0" type="FakeQuantize" version="opset1">
			<data levels="256" auto_broadcast="numpy" />
			<input>
				<port id="0" precision="FP32">
					<dim>-1</dim>
					<dim>-1</dim>
					<dim>1024</dim>
				</port>
				<port id="1" precision="FP32" />
				<port id="2" precision="FP32" />
				<port id="3" precision="FP32" />
				<port id="4" precision="FP32" />
			</input>
			<output>
				<port id="5" precision="FP32">
					<dim>-1</dim>
					<dim>-1</dim>
					<dim>1024</dim>
				</port>
			</output>
		</layer>
		<layer id="236" name="Constant_1157275" type="Const" version="opset1">
			<data element_type="i8" shape="1024, 1024" offset="47797728" size="1048576" />
			<output>
				<port id="0" precision="I8">
					<dim>1024</dim>
					<dim>1024</dim>
				</port>
			</output>
		</layer>
		<layer id="237" name="Convert_1157276" type="Convert" version="opset1">
			<data destination_type="f32" />
			<input>
				<port id="0" precision="I8">
					<dim>1024</dim>
					<dim>1024</dim>
				</port>
			</input>
			<output>
				<port id="1" precision="FP32">
					<dim>1024</dim>
					<dim>1024</dim>
				</port>
			</output>
		</layer>
		<layer id="238" name="Constant_1157277" type="Const" version="opset1">
			<data element_type="f32" shape="1024, 1" offset="48846304" size="4096" />
			<output>
				<port id="0" precision="FP32">
					<dim>1024</dim>
					<dim>1</dim>
				</port>
			</output>
		</layer>
		<layer id="239" name="__module.encoder.layer.1.attention.output.dense/aten::linear/MatMul/fq_weights_1" type="Multiply" version="opset1">
			<data auto_broadcast="numpy" />
			<input>
				<port id="0" precision="FP32">
					<dim>1024</dim>
					<dim>1024</dim>
				</port>
				<port id="1" precision="FP32">
					<dim>1024</dim>
					<dim>1</dim>
				</port>
			</input>
			<output>
				<port id="2" precision="FP32">
					<dim>1024</dim>
					<dim>1024</dim>
				</port>
			</output>
		</layer>
		<layer id="240" name="__module.encoder.layer.1.attention.output.dense/aten::linear/MatMul" type="MatMul" version="opset1">
			<data transpose_a="false" transpose_b="true" />
			<input>
				<port id="0" precision="FP32">
					<dim>-1</dim>
					<dim>-1</dim>
					<dim>1024</dim>
				</port>
				<port id="1" precision="FP32">
					<dim>1024</dim>
					<dim>1024</dim>
				</port>
			</input>
			<output>
				<port id="2" precision="FP32">
					<dim>-1</dim>
					<dim>-1</dim>
					<dim>1024</dim>
				</port>
			</output>
		</layer>
		<layer id="241" name="Constant_62570" type="Const" version="opset1">
			<data element_type="f32" shape="1, 1, 1024" offset="48850400" size="4096" />
			<output>
				<port id="0" precision="FP32">
					<dim>1</dim>
					<dim>1</dim>
					<dim>1024</dim>
				</port>
			</output>
		</layer>
		<layer id="242" name="__module.encoder.layer.1.attention.output.dense/aten::linear/Add" type="Add" version="opset1">
			<data auto_broadcast="numpy" />
			<input>
				<port id="0" precision="FP32">
					<dim>-1</dim>
					<dim>-1</dim>
					<dim>1024</dim>
				</port>
				<port id="1" precision="FP32">
					<dim>1</dim>
					<dim>1</dim>
					<dim>1024</dim>
				</port>
			</input>
			<output>
				<port id="2" precision="FP32" names="270,input.7">
					<dim>-1</dim>
					<dim>-1</dim>
					<dim>1024</dim>
				</port>
			</output>
		</layer>
		<layer id="243" name="__module.encoder.layer.1.attention.output/aten::add/Add" type="Add" version="opset1">
			<data auto_broadcast="numpy" />
			<input>
				<port id="0" precision="FP32">
					<dim>-1</dim>
					<dim>-1</dim>
					<dim>1024</dim>
				</port>
				<port id="1" precision="FP32">
					<dim>-1</dim>
					<dim>-1</dim>
					<dim>1024</dim>
				</port>
			</input>
			<output>
				<port id="2" precision="FP32" names="272">
					<dim>-1</dim>
					<dim>-1</dim>
					<dim>1024</dim>
				</port>
			</output>
		</layer>
		<layer id="244" name="__module.encoder.layer.1.attention.output.LayerNorm/aten::layer_norm/Multiply" type="Const" version="opset1">
			<data element_type="i32" shape="1" offset="31909124" size="4" />
			<output>
				<port id="0" precision="I32">
					<dim>1</dim>
				</port>
			</output>
		</layer>
		<layer id="245" name="__module.encoder.layer.1.attention.output.LayerNorm/aten::layer_norm/MVN" type="MVN" version="opset6">
			<data eps="9.999999960041972e-13" normalize_variance="true" eps_mode="INSIDE_SQRT" />
			<input>
				<port id="0" precision="FP32">
					<dim>-1</dim>
					<dim>-1</dim>
					<dim>1024</dim>
				</port>
				<port id="1" precision="I32">
					<dim>1</dim>
				</port>
			</input>
			<output>
				<port id="2" precision="FP32">
					<dim>-1</dim>
					<dim>-1</dim>
					<dim>1024</dim>
				</port>
			</output>
		</layer>
		<layer id="246" name="Constant_62571" type="Const" version="opset1">
			<data element_type="f32" shape="1, 1, 1024" offset="48854496" size="4096" />
			<output>
				<port id="0" precision="FP32">
					<dim>1</dim>
					<dim>1</dim>
					<dim>1024</dim>
				</port>
			</output>
		</layer>
		<layer id="247" name="__module.encoder.layer.1.attention.output.LayerNorm/aten::layer_norm/Multiply_1" type="Multiply" version="opset1">
			<data auto_broadcast="numpy" />
			<input>
				<port id="0" precision="FP32">
					<dim>-1</dim>
					<dim>-1</dim>
					<dim>1024</dim>
				</port>
				<port id="1" precision="FP32">
					<dim>1</dim>
					<dim>1</dim>
					<dim>1024</dim>
				</port>
			</input>
			<output>
				<port id="2" precision="FP32">
					<dim>-1</dim>
					<dim>-1</dim>
					<dim>1024</dim>
				</port>
			</output>
		</layer>
		<layer id="248" name="Constant_62572" type="Const" version="opset1">
			<data element_type="f32" shape="1, 1, 1024" offset="48858592" size="4096" />
			<output>
				<port id="0" precision="FP32">
					<dim>1</dim>
					<dim>1</dim>
					<dim>1024</dim>
				</port>
			</output>
		</layer>
		<layer id="249" name="__module.encoder.layer.1.attention.output.LayerNorm/aten::layer_norm/Add" type="Add" version="opset1">
			<data auto_broadcast="numpy" />
			<input>
				<port id="0" precision="FP32">
					<dim>-1</dim>
					<dim>-1</dim>
					<dim>1024</dim>
				</port>
				<port id="1" precision="FP32">
					<dim>1</dim>
					<dim>1</dim>
					<dim>1024</dim>
				</port>
			</input>
			<output>
				<port id="2" precision="FP32" names="276,input_tensor.3">
					<dim>-1</dim>
					<dim>-1</dim>
					<dim>1024</dim>
				</port>
			</output>
		</layer>
		<layer id="250" name="__module.encoder.layer.1.attention.output.LayerNorm/aten::layer_norm/Add_0_0/nncf_smooth_quant/scale" type="Const" version="opset1">
			<data element_type="f32" shape="1, 1, 1024" offset="48862688" size="4096" />
			<output>
				<port id="0" precision="FP32">
					<dim>1</dim>
					<dim>1</dim>
					<dim>1024</dim>
				</port>
			</output>
		</layer>
		<layer id="251" name="__module.encoder.layer.1.attention.output.LayerNorm/aten::layer_norm/Add_0_0/nncf_smooth_quant" type="Multiply" version="opset1">
			<data auto_broadcast="numpy" />
			<input>
				<port id="0" precision="FP32">
					<dim>-1</dim>
					<dim>-1</dim>
					<dim>1024</dim>
				</port>
				<port id="1" precision="FP32">
					<dim>1</dim>
					<dim>1</dim>
					<dim>1024</dim>
				</port>
			</input>
			<output>
				<port id="2" precision="FP32">
					<dim>-1</dim>
					<dim>-1</dim>
					<dim>1024</dim>
				</port>
			</output>
		</layer>
		<layer id="252" name="__module.encoder.layer.1.attention.output.LayerNorm/aten::layer_norm/Add_0_0/nncf_smooth_quant/fq_output_0/input_low" type="Const" version="opset1">
			<data element_type="f32" shape="" offset="48866784" size="4" />
			<output>
				<port id="0" precision="FP32" />
			</output>
		</layer>
		<layer id="253" name="__module.encoder.layer.1.attention.output.LayerNorm/aten::layer_norm/Add_0_0/nncf_smooth_quant/fq_output_0/input_high" type="Const" version="opset1">
			<data element_type="f32" shape="" offset="48866788" size="4" />
			<output>
				<port id="0" precision="FP32" />
			</output>
		</layer>
		<layer id="254" name="__module.encoder.layer.1.attention.output.LayerNorm/aten::layer_norm/Add_0_0/nncf_smooth_quant/fq_output_0/output_low" type="Const" version="opset1">
			<data element_type="f32" shape="" offset="48866784" size="4" />
			<output>
				<port id="0" precision="FP32" />
			</output>
		</layer>
		<layer id="255" name="__module.encoder.layer.1.attention.output.LayerNorm/aten::layer_norm/Add_0_0/nncf_smooth_quant/fq_output_0/output_high" type="Const" version="opset1">
			<data element_type="f32" shape="" offset="48866788" size="4" />
			<output>
				<port id="0" precision="FP32" />
			</output>
		</layer>
		<layer id="256" name="__module.encoder.layer.1.attention.output.LayerNorm/aten::layer_norm/Add_0_0/nncf_smooth_quant/fq_output_0" type="FakeQuantize" version="opset1">
			<data levels="256" auto_broadcast="numpy" />
			<input>
				<port id="0" precision="FP32">
					<dim>-1</dim>
					<dim>-1</dim>
					<dim>1024</dim>
				</port>
				<port id="1" precision="FP32" />
				<port id="2" precision="FP32" />
				<port id="3" precision="FP32" />
				<port id="4" precision="FP32" />
			</input>
			<output>
				<port id="5" precision="FP32">
					<dim>-1</dim>
					<dim>-1</dim>
					<dim>1024</dim>
				</port>
			</output>
		</layer>
		<layer id="257" name="Constant_1157279" type="Const" version="opset1">
			<data element_type="i8" shape="4096, 1024" offset="48866792" size="4194304" />
			<output>
				<port id="0" precision="I8">
					<dim>4096</dim>
					<dim>1024</dim>
				</port>
			</output>
		</layer>
		<layer id="258" name="Convert_1157280" type="Convert" version="opset1">
			<data destination_type="f32" />
			<input>
				<port id="0" precision="I8">
					<dim>4096</dim>
					<dim>1024</dim>
				</port>
			</input>
			<output>
				<port id="1" precision="FP32">
					<dim>4096</dim>
					<dim>1024</dim>
				</port>
			</output>
		</layer>
		<layer id="259" name="Constant_1157281" type="Const" version="opset1">
			<data element_type="f32" shape="4096, 1" offset="53061096" size="16384" />
			<output>
				<port id="0" precision="FP32">
					<dim>4096</dim>
					<dim>1</dim>
				</port>
			</output>
		</layer>
		<layer id="260" name="__module.encoder.layer.1.intermediate.dense/aten::linear/MatMul/fq_weights_1" type="Multiply" version="opset1">
			<data auto_broadcast="numpy" />
			<input>
				<port id="0" precision="FP32">
					<dim>4096</dim>
					<dim>1024</dim>
				</port>
				<port id="1" precision="FP32">
					<dim>4096</dim>
					<dim>1</dim>
				</port>
			</input>
			<output>
				<port id="2" precision="FP32">
					<dim>4096</dim>
					<dim>1024</dim>
				</port>
			</output>
		</layer>
		<layer id="261" name="__module.encoder.layer.1.intermediate.dense/aten::linear/MatMul" type="MatMul" version="opset1">
			<data transpose_a="false" transpose_b="true" />
			<input>
				<port id="0" precision="FP32">
					<dim>-1</dim>
					<dim>-1</dim>
					<dim>1024</dim>
				</port>
				<port id="1" precision="FP32">
					<dim>4096</dim>
					<dim>1024</dim>
				</port>
			</input>
			<output>
				<port id="2" precision="FP32">
					<dim>-1</dim>
					<dim>-1</dim>
					<dim>4096</dim>
				</port>
			</output>
		</layer>
		<layer id="262" name="Constant_62573" type="Const" version="opset1">
			<data element_type="f32" shape="1, 1, 4096" offset="53077480" size="16384" />
			<output>
				<port id="0" precision="FP32">
					<dim>1</dim>
					<dim>1</dim>
					<dim>4096</dim>
				</port>
			</output>
		</layer>
		<layer id="263" name="__module.encoder.layer.1.intermediate.dense/aten::linear/Add" type="Add" version="opset1">
			<data auto_broadcast="numpy" />
			<input>
				<port id="0" precision="FP32">
					<dim>-1</dim>
					<dim>-1</dim>
					<dim>4096</dim>
				</port>
				<port id="1" precision="FP32">
					<dim>1</dim>
					<dim>1</dim>
					<dim>4096</dim>
				</port>
			</input>
			<output>
				<port id="2" precision="FP32" names="281">
					<dim>-1</dim>
					<dim>-1</dim>
					<dim>4096</dim>
				</port>
			</output>
		</layer>
		<layer id="264" name="__module.encoder.layer.1.intermediate.intermediate_act_fn/aten::gelu/Gelu" type="Gelu" version="opset7">
			<data approximation_mode="ERF" />
			<input>
				<port id="0" precision="FP32">
					<dim>-1</dim>
					<dim>-1</dim>
					<dim>4096</dim>
				</port>
			</input>
			<output>
				<port id="1" precision="FP32" names="282">
					<dim>-1</dim>
					<dim>-1</dim>
					<dim>4096</dim>
				</port>
			</output>
		</layer>
		<layer id="265" name="__module.encoder.layer.1.intermediate.intermediate_act_fn/aten::gelu/Gelu_0_0/nncf_smooth_quant/scale" type="Const" version="opset1">
			<data element_type="f32" shape="1, 1, 4096" offset="53093864" size="16384" />
			<output>
				<port id="0" precision="FP32">
					<dim>1</dim>
					<dim>1</dim>
					<dim>4096</dim>
				</port>
			</output>
		</layer>
		<layer id="266" name="__module.encoder.layer.1.intermediate.intermediate_act_fn/aten::gelu/Gelu_0_0/nncf_smooth_quant" type="Multiply" version="opset1">
			<data auto_broadcast="numpy" />
			<input>
				<port id="0" precision="FP32">
					<dim>-1</dim>
					<dim>-1</dim>
					<dim>4096</dim>
				</port>
				<port id="1" precision="FP32">
					<dim>1</dim>
					<dim>1</dim>
					<dim>4096</dim>
				</port>
			</input>
			<output>
				<port id="2" precision="FP32">
					<dim>-1</dim>
					<dim>-1</dim>
					<dim>4096</dim>
				</port>
			</output>
		</layer>
		<layer id="267" name="__module.encoder.layer.1.intermediate.intermediate_act_fn/aten::gelu/Gelu_0_0/nncf_smooth_quant/fq_output_0/input_low" type="Const" version="opset1">
			<data element_type="f32" shape="" offset="53110248" size="4" />
			<output>
				<port id="0" precision="FP32" />
			</output>
		</layer>
		<layer id="268" name="__module.encoder.layer.1.intermediate.intermediate_act_fn/aten::gelu/Gelu_0_0/nncf_smooth_quant/fq_output_0/input_high" type="Const" version="opset1">
			<data element_type="f32" shape="" offset="53110252" size="4" />
			<output>
				<port id="0" precision="FP32" />
			</output>
		</layer>
		<layer id="269" name="__module.encoder.layer.1.intermediate.intermediate_act_fn/aten::gelu/Gelu_0_0/nncf_smooth_quant/fq_output_0/output_low" type="Const" version="opset1">
			<data element_type="f32" shape="" offset="53110248" size="4" />
			<output>
				<port id="0" precision="FP32" />
			</output>
		</layer>
		<layer id="270" name="__module.encoder.layer.1.intermediate.intermediate_act_fn/aten::gelu/Gelu_0_0/nncf_smooth_quant/fq_output_0/output_high" type="Const" version="opset1">
			<data element_type="f32" shape="" offset="53110252" size="4" />
			<output>
				<port id="0" precision="FP32" />
			</output>
		</layer>
		<layer id="271" name="__module.encoder.layer.1.intermediate.intermediate_act_fn/aten::gelu/Gelu_0_0/nncf_smooth_quant/fq_output_0" type="FakeQuantize" version="opset1">
			<data levels="256" auto_broadcast="numpy" />
			<input>
				<port id="0" precision="FP32">
					<dim>-1</dim>
					<dim>-1</dim>
					<dim>4096</dim>
				</port>
				<port id="1" precision="FP32" />
				<port id="2" precision="FP32" />
				<port id="3" precision="FP32" />
				<port id="4" precision="FP32" />
			</input>
			<output>
				<port id="5" precision="FP32">
					<dim>-1</dim>
					<dim>-1</dim>
					<dim>4096</dim>
				</port>
			</output>
		</layer>
		<layer id="272" name="Constant_1157283" type="Const" version="opset1">
			<data element_type="i8" shape="1024, 4096" offset="53110256" size="4194304" />
			<output>
				<port id="0" precision="I8">
					<dim>1024</dim>
					<dim>4096</dim>
				</port>
			</output>
		</layer>
		<layer id="273" name="Convert_1157284" type="Convert" version="opset1">
			<data destination_type="f32" />
			<input>
				<port id="0" precision="I8">
					<dim>1024</dim>
					<dim>4096</dim>
				</port>
			</input>
			<output>
				<port id="1" precision="FP32">
					<dim>1024</dim>
					<dim>4096</dim>
				</port>
			</output>
		</layer>
		<layer id="274" name="Constant_1157285" type="Const" version="opset1">
			<data element_type="f32" shape="1024, 1" offset="57304560" size="4096" />
			<output>
				<port id="0" precision="FP32">
					<dim>1024</dim>
					<dim>1</dim>
				</port>
			</output>
		</layer>
		<layer id="275" name="__module.encoder.layer.1.output.dense/aten::linear/MatMul/fq_weights_1" type="Multiply" version="opset1">
			<data auto_broadcast="numpy" />
			<input>
				<port id="0" precision="FP32">
					<dim>1024</dim>
					<dim>4096</dim>
				</port>
				<port id="1" precision="FP32">
					<dim>1024</dim>
					<dim>1</dim>
				</port>
			</input>
			<output>
				<port id="2" precision="FP32">
					<dim>1024</dim>
					<dim>4096</dim>
				</port>
			</output>
		</layer>
		<layer id="276" name="__module.encoder.layer.1.output.dense/aten::linear/MatMul" type="MatMul" version="opset1">
			<data transpose_a="false" transpose_b="true" />
			<input>
				<port id="0" precision="FP32">
					<dim>-1</dim>
					<dim>-1</dim>
					<dim>4096</dim>
				</port>
				<port id="1" precision="FP32">
					<dim>1024</dim>
					<dim>4096</dim>
				</port>
			</input>
			<output>
				<port id="2" precision="FP32">
					<dim>-1</dim>
					<dim>-1</dim>
					<dim>1024</dim>
				</port>
			</output>
		</layer>
		<layer id="277" name="Constant_62574" type="Const" version="opset1">
			<data element_type="f32" shape="1, 1, 1024" offset="57308656" size="4096" />
			<output>
				<port id="0" precision="FP32">
					<dim>1</dim>
					<dim>1</dim>
					<dim>1024</dim>
				</port>
			</output>
		</layer>
		<layer id="278" name="__module.encoder.layer.1.output.dense/aten::linear/Add" type="Add" version="opset1">
			<data auto_broadcast="numpy" />
			<input>
				<port id="0" precision="FP32">
					<dim>-1</dim>
					<dim>-1</dim>
					<dim>1024</dim>
				</port>
				<port id="1" precision="FP32">
					<dim>1</dim>
					<dim>1</dim>
					<dim>1024</dim>
				</port>
			</input>
			<output>
				<port id="2" precision="FP32" names="288,input.9">
					<dim>-1</dim>
					<dim>-1</dim>
					<dim>1024</dim>
				</port>
			</output>
		</layer>
		<layer id="279" name="__module.encoder.layer.1.output/aten::add/Add" type="Add" version="opset1">
			<data auto_broadcast="numpy" />
			<input>
				<port id="0" precision="FP32">
					<dim>-1</dim>
					<dim>-1</dim>
					<dim>1024</dim>
				</port>
				<port id="1" precision="FP32">
					<dim>-1</dim>
					<dim>-1</dim>
					<dim>1024</dim>
				</port>
			</input>
			<output>
				<port id="2" precision="FP32" names="290">
					<dim>-1</dim>
					<dim>-1</dim>
					<dim>1024</dim>
				</port>
			</output>
		</layer>
		<layer id="280" name="__module.encoder.layer.1.output.LayerNorm/aten::layer_norm/Multiply" type="Const" version="opset1">
			<data element_type="i32" shape="1" offset="31909124" size="4" />
			<output>
				<port id="0" precision="I32">
					<dim>1</dim>
				</port>
			</output>
		</layer>
		<layer id="281" name="__module.encoder.layer.1.output.LayerNorm/aten::layer_norm/MVN" type="MVN" version="opset6">
			<data eps="9.999999960041972e-13" normalize_variance="true" eps_mode="INSIDE_SQRT" />
			<input>
				<port id="0" precision="FP32">
					<dim>-1</dim>
					<dim>-1</dim>
					<dim>1024</dim>
				</port>
				<port id="1" precision="I32">
					<dim>1</dim>
				</port>
			</input>
			<output>
				<port id="2" precision="FP32">
					<dim>-1</dim>
					<dim>-1</dim>
					<dim>1024</dim>
				</port>
			</output>
		</layer>
		<layer id="282" name="Constant_62575" type="Const" version="opset1">
			<data element_type="f32" shape="1, 1, 1024" offset="57312752" size="4096" />
			<output>
				<port id="0" precision="FP32">
					<dim>1</dim>
					<dim>1</dim>
					<dim>1024</dim>
				</port>
			</output>
		</layer>
		<layer id="283" name="__module.encoder.layer.1.output.LayerNorm/aten::layer_norm/Multiply_1" type="Multiply" version="opset1">
			<data auto_broadcast="numpy" />
			<input>
				<port id="0" precision="FP32">
					<dim>-1</dim>
					<dim>-1</dim>
					<dim>1024</dim>
				</port>
				<port id="1" precision="FP32">
					<dim>1</dim>
					<dim>1</dim>
					<dim>1024</dim>
				</port>
			</input>
			<output>
				<port id="2" precision="FP32">
					<dim>-1</dim>
					<dim>-1</dim>
					<dim>1024</dim>
				</port>
			</output>
		</layer>
		<layer id="284" name="Constant_62576" type="Const" version="opset1">
			<data element_type="f32" shape="1, 1, 1024" offset="57316848" size="4096" />
			<output>
				<port id="0" precision="FP32">
					<dim>1</dim>
					<dim>1</dim>
					<dim>1024</dim>
				</port>
			</output>
		</layer>
		<layer id="285" name="__module.encoder.layer.1.output.LayerNorm/aten::layer_norm/Add" type="Add" version="opset1">
			<data auto_broadcast="numpy" />
			<input>
				<port id="0" precision="FP32">
					<dim>-1</dim>
					<dim>-1</dim>
					<dim>1024</dim>
				</port>
				<port id="1" precision="FP32">
					<dim>1</dim>
					<dim>1</dim>
					<dim>1024</dim>
				</port>
			</input>
			<output>
				<port id="2" precision="FP32" names="294,hidden_states.13">
					<dim>-1</dim>
					<dim>-1</dim>
					<dim>1024</dim>
				</port>
			</output>
		</layer>
		<layer id="286" name="__module.encoder.layer.1.output.LayerNorm/aten::layer_norm/Add_0_0/nncf_smooth_quant/scale" type="Const" version="opset1">
			<data element_type="f32" shape="1, 1, 1024" offset="57320944" size="4096" />
			<output>
				<port id="0" precision="FP32">
					<dim>1</dim>
					<dim>1</dim>
					<dim>1024</dim>
				</port>
			</output>
		</layer>
		<layer id="287" name="__module.encoder.layer.1.output.LayerNorm/aten::layer_norm/Add_0_0/nncf_smooth_quant" type="Multiply" version="opset1">
			<data auto_broadcast="numpy" />
			<input>
				<port id="0" precision="FP32">
					<dim>-1</dim>
					<dim>-1</dim>
					<dim>1024</dim>
				</port>
				<port id="1" precision="FP32">
					<dim>1</dim>
					<dim>1</dim>
					<dim>1024</dim>
				</port>
			</input>
			<output>
				<port id="2" precision="FP32">
					<dim>-1</dim>
					<dim>-1</dim>
					<dim>1024</dim>
				</port>
			</output>
		</layer>
		<layer id="288" name="__module.encoder.layer.1.output.LayerNorm/aten::layer_norm/Add_0_0/nncf_smooth_quant/fq_output_0/input_low" type="Const" version="opset1">
			<data element_type="f32" shape="" offset="57325040" size="4" />
			<output>
				<port id="0" precision="FP32" />
			</output>
		</layer>
		<layer id="289" name="__module.encoder.layer.1.output.LayerNorm/aten::layer_norm/Add_0_0/nncf_smooth_quant/fq_output_0/input_high" type="Const" version="opset1">
			<data element_type="f32" shape="" offset="57325044" size="4" />
			<output>
				<port id="0" precision="FP32" />
			</output>
		</layer>
		<layer id="290" name="__module.encoder.layer.1.output.LayerNorm/aten::layer_norm/Add_0_0/nncf_smooth_quant/fq_output_0/output_low" type="Const" version="opset1">
			<data element_type="f32" shape="" offset="57325040" size="4" />
			<output>
				<port id="0" precision="FP32" />
			</output>
		</layer>
		<layer id="291" name="__module.encoder.layer.1.output.LayerNorm/aten::layer_norm/Add_0_0/nncf_smooth_quant/fq_output_0/output_high" type="Const" version="opset1">
			<data element_type="f32" shape="" offset="57325044" size="4" />
			<output>
				<port id="0" precision="FP32" />
			</output>
		</layer>
		<layer id="292" name="__module.encoder.layer.1.output.LayerNorm/aten::layer_norm/Add_0_0/nncf_smooth_quant/fq_output_0" type="FakeQuantize" version="opset1">
			<data levels="256" auto_broadcast="numpy" />
			<input>
				<port id="0" precision="FP32">
					<dim>-1</dim>
					<dim>-1</dim>
					<dim>1024</dim>
				</port>
				<port id="1" precision="FP32" />
				<port id="2" precision="FP32" />
				<port id="3" precision="FP32" />
				<port id="4" precision="FP32" />
			</input>
			<output>
				<port id="5" precision="FP32">
					<dim>-1</dim>
					<dim>-1</dim>
					<dim>1024</dim>
				</port>
			</output>
		</layer>
		<layer id="293" name="Constant_1157287" type="Const" version="opset1">
			<data element_type="i8" shape="1024, 1024" offset="57325048" size="1048576" />
			<output>
				<port id="0" precision="I8">
					<dim>1024</dim>
					<dim>1024</dim>
				</port>
			</output>
		</layer>
		<layer id="294" name="Convert_1157288" type="Convert" version="opset1">
			<data destination_type="f32" />
			<input>
				<port id="0" precision="I8">
					<dim>1024</dim>
					<dim>1024</dim>
				</port>
			</input>
			<output>
				<port id="1" precision="FP32">
					<dim>1024</dim>
					<dim>1024</dim>
				</port>
			</output>
		</layer>
		<layer id="295" name="Constant_1157289" type="Const" version="opset1">
			<data element_type="f32" shape="1024, 1" offset="58373624" size="4096" />
			<output>
				<port id="0" precision="FP32">
					<dim>1024</dim>
					<dim>1</dim>
				</port>
			</output>
		</layer>
		<layer id="296" name="__module.encoder.layer.2.attention.self.query/aten::linear/MatMul/fq_weights_1" type="Multiply" version="opset1">
			<data auto_broadcast="numpy" />
			<input>
				<port id="0" precision="FP32">
					<dim>1024</dim>
					<dim>1024</dim>
				</port>
				<port id="1" precision="FP32">
					<dim>1024</dim>
					<dim>1</dim>
				</port>
			</input>
			<output>
				<port id="2" precision="FP32">
					<dim>1024</dim>
					<dim>1024</dim>
				</port>
			</output>
		</layer>
		<layer id="297" name="__module.encoder.layer.2.attention.self.query/aten::linear/MatMul" type="MatMul" version="opset1">
			<data transpose_a="false" transpose_b="true" />
			<input>
				<port id="0" precision="FP32">
					<dim>-1</dim>
					<dim>-1</dim>
					<dim>1024</dim>
				</port>
				<port id="1" precision="FP32">
					<dim>1024</dim>
					<dim>1024</dim>
				</port>
			</input>
			<output>
				<port id="2" precision="FP32">
					<dim>-1</dim>
					<dim>-1</dim>
					<dim>1024</dim>
				</port>
			</output>
		</layer>
		<layer id="298" name="Constant_62577" type="Const" version="opset1">
			<data element_type="f32" shape="1, 1, 1024" offset="58377720" size="4096" />
			<output>
				<port id="0" precision="FP32">
					<dim>1</dim>
					<dim>1</dim>
					<dim>1024</dim>
				</port>
			</output>
		</layer>
		<layer id="299" name="__module.encoder.layer.2.attention.self.query/aten::linear/Add" type="Add" version="opset1">
			<data auto_broadcast="numpy" />
			<input>
				<port id="0" precision="FP32">
					<dim>-1</dim>
					<dim>-1</dim>
					<dim>1024</dim>
				</port>
				<port id="1" precision="FP32">
					<dim>1</dim>
					<dim>1</dim>
					<dim>1024</dim>
				</port>
			</input>
			<output>
				<port id="2" precision="FP32" names="307,x.25">
					<dim>-1</dim>
					<dim>-1</dim>
					<dim>1024</dim>
				</port>
			</output>
		</layer>
		<layer id="300" name="__module.encoder.layer.2.attention.self.query/aten::linear/Add/fq_output_0/input_low" type="Const" version="opset1">
			<data element_type="f32" shape="" offset="58381816" size="4" />
			<output>
				<port id="0" precision="FP32" />
			</output>
		</layer>
		<layer id="301" name="__module.encoder.layer.2.attention.self.query/aten::linear/Add/fq_output_0/input_high" type="Const" version="opset1">
			<data element_type="f32" shape="" offset="58381820" size="4" />
			<output>
				<port id="0" precision="FP32" />
			</output>
		</layer>
		<layer id="302" name="__module.encoder.layer.2.attention.self.query/aten::linear/Add/fq_output_0/output_low" type="Const" version="opset1">
			<data element_type="f32" shape="" offset="58381816" size="4" />
			<output>
				<port id="0" precision="FP32" />
			</output>
		</layer>
		<layer id="303" name="__module.encoder.layer.2.attention.self.query/aten::linear/Add/fq_output_0/output_high" type="Const" version="opset1">
			<data element_type="f32" shape="" offset="58381820" size="4" />
			<output>
				<port id="0" precision="FP32" />
			</output>
		</layer>
		<layer id="304" name="__module.encoder.layer.2.attention.self.query/aten::linear/Add/fq_output_0" type="FakeQuantize" version="opset1">
			<data levels="256" auto_broadcast="numpy" />
			<input>
				<port id="0" precision="FP32">
					<dim>-1</dim>
					<dim>-1</dim>
					<dim>1024</dim>
				</port>
				<port id="1" precision="FP32" />
				<port id="2" precision="FP32" />
				<port id="3" precision="FP32" />
				<port id="4" precision="FP32" />
			</input>
			<output>
				<port id="5" precision="FP32">
					<dim>-1</dim>
					<dim>-1</dim>
					<dim>1024</dim>
				</port>
			</output>
		</layer>
		<layer id="305" name="__module.encoder.layer.2.attention.self/prim::ListConstruct/Concat" type="Const" version="opset1">
			<data element_type="i64" shape="4" offset="32978200" size="32" />
			<output>
				<port id="0" precision="I64">
					<dim>4</dim>
				</port>
			</output>
		</layer>
		<layer id="306" name="__module.encoder.layer.2.attention.self/aten::view/Reshape" type="Reshape" version="opset1">
			<data special_zero="true" />
			<input>
				<port id="0" precision="FP32">
					<dim>-1</dim>
					<dim>-1</dim>
					<dim>1024</dim>
				</port>
				<port id="1" precision="I64">
					<dim>4</dim>
				</port>
			</input>
			<output>
				<port id="2" precision="FP32" names="311,x.27">
					<dim>-1</dim>
					<dim>-1</dim>
					<dim>16</dim>
					<dim>64</dim>
				</port>
			</output>
		</layer>
		<layer id="307" name="Constant_47614" type="Const" version="opset1">
			<data element_type="i64" shape="4" offset="32978232" size="32" />
			<output>
				<port id="0" precision="I64" names="312">
					<dim>4</dim>
				</port>
			</output>
		</layer>
		<layer id="308" name="__module.encoder.layer.2.attention.self/aten::permute/Transpose" type="Transpose" version="opset1">
			<input>
				<port id="0" precision="FP32">
					<dim>-1</dim>
					<dim>-1</dim>
					<dim>16</dim>
					<dim>64</dim>
				</port>
				<port id="1" precision="I64">
					<dim>4</dim>
				</port>
			</input>
			<output>
				<port id="2" precision="FP32" names="313">
					<dim>-1</dim>
					<dim>16</dim>
					<dim>-1</dim>
					<dim>64</dim>
				</port>
			</output>
		</layer>
		<layer id="309" name="Constant_1157291" type="Const" version="opset1">
			<data element_type="i8" shape="1024, 1024" offset="58381824" size="1048576" />
			<output>
				<port id="0" precision="I8">
					<dim>1024</dim>
					<dim>1024</dim>
				</port>
			</output>
		</layer>
		<layer id="310" name="Convert_1157292" type="Convert" version="opset1">
			<data destination_type="f32" />
			<input>
				<port id="0" precision="I8">
					<dim>1024</dim>
					<dim>1024</dim>
				</port>
			</input>
			<output>
				<port id="1" precision="FP32">
					<dim>1024</dim>
					<dim>1024</dim>
				</port>
			</output>
		</layer>
		<layer id="311" name="Constant_1157293" type="Const" version="opset1">
			<data element_type="f32" shape="1024, 1" offset="59430400" size="4096" />
			<output>
				<port id="0" precision="FP32">
					<dim>1024</dim>
					<dim>1</dim>
				</port>
			</output>
		</layer>
		<layer id="312" name="__module.encoder.layer.2.attention.self.key/aten::linear/MatMul/fq_weights_1" type="Multiply" version="opset1">
			<data auto_broadcast="numpy" />
			<input>
				<port id="0" precision="FP32">
					<dim>1024</dim>
					<dim>1024</dim>
				</port>
				<port id="1" precision="FP32">
					<dim>1024</dim>
					<dim>1</dim>
				</port>
			</input>
			<output>
				<port id="2" precision="FP32">
					<dim>1024</dim>
					<dim>1024</dim>
				</port>
			</output>
		</layer>
		<layer id="313" name="__module.encoder.layer.2.attention.self.key/aten::linear/MatMul" type="MatMul" version="opset1">
			<data transpose_a="false" transpose_b="true" />
			<input>
				<port id="0" precision="FP32">
					<dim>-1</dim>
					<dim>-1</dim>
					<dim>1024</dim>
				</port>
				<port id="1" precision="FP32">
					<dim>1024</dim>
					<dim>1024</dim>
				</port>
			</input>
			<output>
				<port id="2" precision="FP32">
					<dim>-1</dim>
					<dim>-1</dim>
					<dim>1024</dim>
				</port>
			</output>
		</layer>
		<layer id="314" name="Constant_62578" type="Const" version="opset1">
			<data element_type="f32" shape="1, 1, 1024" offset="59434496" size="4096" />
			<output>
				<port id="0" precision="FP32">
					<dim>1</dim>
					<dim>1</dim>
					<dim>1024</dim>
				</port>
			</output>
		</layer>
		<layer id="315" name="__module.encoder.layer.2.attention.self.key/aten::linear/Add" type="Add" version="opset1">
			<data auto_broadcast="numpy" />
			<input>
				<port id="0" precision="FP32">
					<dim>-1</dim>
					<dim>-1</dim>
					<dim>1024</dim>
				</port>
				<port id="1" precision="FP32">
					<dim>1</dim>
					<dim>1</dim>
					<dim>1024</dim>
				</port>
			</input>
			<output>
				<port id="2" precision="FP32" names="316,x.29">
					<dim>-1</dim>
					<dim>-1</dim>
					<dim>1024</dim>
				</port>
			</output>
		</layer>
		<layer id="316" name="__module.encoder.layer.2.attention.self.key/aten::linear/Add/fq_output_0/input_low" type="Const" version="opset1">
			<data element_type="f32" shape="" offset="59438592" size="4" />
			<output>
				<port id="0" precision="FP32" />
			</output>
		</layer>
		<layer id="317" name="__module.encoder.layer.2.attention.self.key/aten::linear/Add/fq_output_0/input_high" type="Const" version="opset1">
			<data element_type="f32" shape="" offset="59438596" size="4" />
			<output>
				<port id="0" precision="FP32" />
			</output>
		</layer>
		<layer id="318" name="__module.encoder.layer.2.attention.self.key/aten::linear/Add/fq_output_0/output_low" type="Const" version="opset1">
			<data element_type="f32" shape="" offset="59438592" size="4" />
			<output>
				<port id="0" precision="FP32" />
			</output>
		</layer>
		<layer id="319" name="__module.encoder.layer.2.attention.self.key/aten::linear/Add/fq_output_0/output_high" type="Const" version="opset1">
			<data element_type="f32" shape="" offset="59438596" size="4" />
			<output>
				<port id="0" precision="FP32" />
			</output>
		</layer>
		<layer id="320" name="__module.encoder.layer.2.attention.self.key/aten::linear/Add/fq_output_0" type="FakeQuantize" version="opset1">
			<data levels="256" auto_broadcast="numpy" />
			<input>
				<port id="0" precision="FP32">
					<dim>-1</dim>
					<dim>-1</dim>
					<dim>1024</dim>
				</port>
				<port id="1" precision="FP32" />
				<port id="2" precision="FP32" />
				<port id="3" precision="FP32" />
				<port id="4" precision="FP32" />
			</input>
			<output>
				<port id="5" precision="FP32">
					<dim>-1</dim>
					<dim>-1</dim>
					<dim>1024</dim>
				</port>
			</output>
		</layer>
		<layer id="321" name="__module.encoder.layer.2.attention.self/prim::ListConstruct/Concat_1" type="Const" version="opset1">
			<data element_type="i64" shape="4" offset="32978200" size="32" />
			<output>
				<port id="0" precision="I64">
					<dim>4</dim>
				</port>
			</output>
		</layer>
		<layer id="322" name="__module.encoder.layer.2.attention.self/aten::view/Reshape_1" type="Reshape" version="opset1">
			<data special_zero="true" />
			<input>
				<port id="0" precision="FP32">
					<dim>-1</dim>
					<dim>-1</dim>
					<dim>1024</dim>
				</port>
				<port id="1" precision="I64">
					<dim>4</dim>
				</port>
			</input>
			<output>
				<port id="2" precision="FP32" names="320,x.31">
					<dim>-1</dim>
					<dim>-1</dim>
					<dim>16</dim>
					<dim>64</dim>
				</port>
			</output>
		</layer>
		<layer id="323" name="Constant_47637" type="Const" version="opset1">
			<data element_type="i64" shape="4" offset="32978232" size="32" />
			<output>
				<port id="0" precision="I64" names="321">
					<dim>4</dim>
				</port>
			</output>
		</layer>
		<layer id="324" name="__module.encoder.layer.2.attention.self/aten::permute/Transpose_1" type="Transpose" version="opset1">
			<input>
				<port id="0" precision="FP32">
					<dim>-1</dim>
					<dim>-1</dim>
					<dim>16</dim>
					<dim>64</dim>
				</port>
				<port id="1" precision="I64">
					<dim>4</dim>
				</port>
			</input>
			<output>
				<port id="2" precision="FP32" names="322">
					<dim>-1</dim>
					<dim>16</dim>
					<dim>-1</dim>
					<dim>64</dim>
				</port>
			</output>
		</layer>
		<layer id="325" name="Constant_1157295" type="Const" version="opset1">
			<data element_type="i8" shape="1024, 1024" offset="59438600" size="1048576" />
			<output>
				<port id="0" precision="I8">
					<dim>1024</dim>
					<dim>1024</dim>
				</port>
			</output>
		</layer>
		<layer id="326" name="Convert_1157296" type="Convert" version="opset1">
			<data destination_type="f32" />
			<input>
				<port id="0" precision="I8">
					<dim>1024</dim>
					<dim>1024</dim>
				</port>
			</input>
			<output>
				<port id="1" precision="FP32">
					<dim>1024</dim>
					<dim>1024</dim>
				</port>
			</output>
		</layer>
		<layer id="327" name="Constant_1157297" type="Const" version="opset1">
			<data element_type="f32" shape="1024, 1" offset="60487176" size="4096" />
			<output>
				<port id="0" precision="FP32">
					<dim>1024</dim>
					<dim>1</dim>
				</port>
			</output>
		</layer>
		<layer id="328" name="__module.encoder.layer.2.attention.self.value/aten::linear/MatMul/fq_weights_1" type="Multiply" version="opset1">
			<data auto_broadcast="numpy" />
			<input>
				<port id="0" precision="FP32">
					<dim>1024</dim>
					<dim>1024</dim>
				</port>
				<port id="1" precision="FP32">
					<dim>1024</dim>
					<dim>1</dim>
				</port>
			</input>
			<output>
				<port id="2" precision="FP32">
					<dim>1024</dim>
					<dim>1024</dim>
				</port>
			</output>
		</layer>
		<layer id="329" name="__module.encoder.layer.2.attention.self.value/aten::linear/MatMul" type="MatMul" version="opset1">
			<data transpose_a="false" transpose_b="true" />
			<input>
				<port id="0" precision="FP32">
					<dim>-1</dim>
					<dim>-1</dim>
					<dim>1024</dim>
				</port>
				<port id="1" precision="FP32">
					<dim>1024</dim>
					<dim>1024</dim>
				</port>
			</input>
			<output>
				<port id="2" precision="FP32">
					<dim>-1</dim>
					<dim>-1</dim>
					<dim>1024</dim>
				</port>
			</output>
		</layer>
		<layer id="330" name="Constant_62579" type="Const" version="opset1">
			<data element_type="f32" shape="1, 1, 1024" offset="60491272" size="4096" />
			<output>
				<port id="0" precision="FP32">
					<dim>1</dim>
					<dim>1</dim>
					<dim>1024</dim>
				</port>
			</output>
		</layer>
		<layer id="331" name="__module.encoder.layer.2.attention.self.value/aten::linear/Add" type="Add" version="opset1">
			<data auto_broadcast="numpy" />
			<input>
				<port id="0" precision="FP32">
					<dim>-1</dim>
					<dim>-1</dim>
					<dim>1024</dim>
				</port>
				<port id="1" precision="FP32">
					<dim>1</dim>
					<dim>1</dim>
					<dim>1024</dim>
				</port>
			</input>
			<output>
				<port id="2" precision="FP32" names="325,x.33">
					<dim>-1</dim>
					<dim>-1</dim>
					<dim>1024</dim>
				</port>
			</output>
		</layer>
		<layer id="332" name="__module.encoder.layer.2.attention.self/prim::ListConstruct/Concat_2" type="Const" version="opset1">
			<data element_type="i64" shape="4" offset="32978200" size="32" />
			<output>
				<port id="0" precision="I64">
					<dim>4</dim>
				</port>
			</output>
		</layer>
		<layer id="333" name="__module.encoder.layer.2.attention.self/aten::view/Reshape_2" type="Reshape" version="opset1">
			<data special_zero="true" />
			<input>
				<port id="0" precision="FP32">
					<dim>-1</dim>
					<dim>-1</dim>
					<dim>1024</dim>
				</port>
				<port id="1" precision="I64">
					<dim>4</dim>
				</port>
			</input>
			<output>
				<port id="2" precision="FP32" names="329,x.35">
					<dim>-1</dim>
					<dim>-1</dim>
					<dim>16</dim>
					<dim>64</dim>
				</port>
			</output>
		</layer>
		<layer id="334" name="Constant_47660" type="Const" version="opset1">
			<data element_type="i64" shape="4" offset="32978232" size="32" />
			<output>
				<port id="0" precision="I64" names="330">
					<dim>4</dim>
				</port>
			</output>
		</layer>
		<layer id="335" name="__module.encoder.layer.2.attention.self/aten::permute/Transpose_2" type="Transpose" version="opset1">
			<input>
				<port id="0" precision="FP32">
					<dim>-1</dim>
					<dim>-1</dim>
					<dim>16</dim>
					<dim>64</dim>
				</port>
				<port id="1" precision="I64">
					<dim>4</dim>
				</port>
			</input>
			<output>
				<port id="2" precision="FP32" names="331">
					<dim>-1</dim>
					<dim>16</dim>
					<dim>-1</dim>
					<dim>64</dim>
				</port>
			</output>
		</layer>
		<layer id="336" name="__module.encoder.layer.2.attention.self/aten::scaled_dot_product_attention/ScaledDotProductAttention" type="ScaledDotProductAttention" version="opset13">
			<data causal="false" />
			<input>
				<port id="0" precision="FP32">
					<dim>-1</dim>
					<dim>16</dim>
					<dim>-1</dim>
					<dim>64</dim>
				</port>
				<port id="1" precision="FP32">
					<dim>-1</dim>
					<dim>16</dim>
					<dim>-1</dim>
					<dim>64</dim>
				</port>
				<port id="2" precision="FP32">
					<dim>-1</dim>
					<dim>16</dim>
					<dim>-1</dim>
					<dim>64</dim>
				</port>
				<port id="3" precision="FP32">
					<dim>-1</dim>
					<dim>1</dim>
					<dim>-1</dim>
					<dim>-1</dim>
				</port>
			</input>
			<output>
				<port id="4" precision="FP32" names="332,attn_output.9">
					<dim>-1</dim>
					<dim>16</dim>
					<dim>-1</dim>
					<dim>64</dim>
				</port>
			</output>
		</layer>
		<layer id="337" name="__module.encoder.layer.2.attention.self/aten::transpose/ScatterElementsUpdate" type="Const" version="opset1">
			<data element_type="i32" shape="4" offset="35091840" size="16" />
			<output>
				<port id="0" precision="I32">
					<dim>4</dim>
				</port>
			</output>
		</layer>
		<layer id="338" name="__module.encoder.layer.2.attention.self/aten::transpose/Transpose" type="Transpose" version="opset1">
			<input>
				<port id="0" precision="FP32">
					<dim>-1</dim>
					<dim>16</dim>
					<dim>-1</dim>
					<dim>64</dim>
				</port>
				<port id="1" precision="I32">
					<dim>4</dim>
				</port>
			</input>
			<output>
				<port id="2" precision="FP32" names="333,attn_output.11">
					<dim>-1</dim>
					<dim>-1</dim>
					<dim>16</dim>
					<dim>64</dim>
				</port>
			</output>
		</layer>
		<layer id="339" name="Constant_63005" type="Const" version="opset1">
			<data element_type="i64" shape="3" offset="35091856" size="24" />
			<output>
				<port id="0" precision="I64">
					<dim>3</dim>
				</port>
			</output>
		</layer>
		<layer id="340" name="__module.encoder.layer.2.attention.self/aten::reshape/Reshape" type="Reshape" version="opset1">
			<data special_zero="true" />
			<input>
				<port id="0" precision="FP32">
					<dim>-1</dim>
					<dim>-1</dim>
					<dim>16</dim>
					<dim>64</dim>
				</port>
				<port id="1" precision="I64">
					<dim>3</dim>
				</port>
			</input>
			<output>
				<port id="2" precision="FP32" names="335">
					<dim>-1</dim>
					<dim>-1</dim>
					<dim>1024</dim>
				</port>
			</output>
		</layer>
		<layer id="341" name="__module.encoder.layer.2.attention.self/aten::reshape/Reshape_0_0/nncf_smooth_quant/scale" type="Const" version="opset1">
			<data element_type="f32" shape="1, 1, 1024" offset="60495368" size="4096" />
			<output>
				<port id="0" precision="FP32">
					<dim>1</dim>
					<dim>1</dim>
					<dim>1024</dim>
				</port>
			</output>
		</layer>
		<layer id="342" name="__module.encoder.layer.2.attention.self/aten::reshape/Reshape_0_0/nncf_smooth_quant" type="Multiply" version="opset1">
			<data auto_broadcast="numpy" />
			<input>
				<port id="0" precision="FP32">
					<dim>-1</dim>
					<dim>-1</dim>
					<dim>1024</dim>
				</port>
				<port id="1" precision="FP32">
					<dim>1</dim>
					<dim>1</dim>
					<dim>1024</dim>
				</port>
			</input>
			<output>
				<port id="2" precision="FP32">
					<dim>-1</dim>
					<dim>-1</dim>
					<dim>1024</dim>
				</port>
			</output>
		</layer>
		<layer id="343" name="__module.encoder.layer.2.attention.self/aten::reshape/Reshape_0_0/nncf_smooth_quant/fq_output_0/input_low" type="Const" version="opset1">
			<data element_type="f32" shape="" offset="60499464" size="4" />
			<output>
				<port id="0" precision="FP32" />
			</output>
		</layer>
		<layer id="344" name="__module.encoder.layer.2.attention.self/aten::reshape/Reshape_0_0/nncf_smooth_quant/fq_output_0/input_high" type="Const" version="opset1">
			<data element_type="f32" shape="" offset="60499468" size="4" />
			<output>
				<port id="0" precision="FP32" />
			</output>
		</layer>
		<layer id="345" name="__module.encoder.layer.2.attention.self/aten::reshape/Reshape_0_0/nncf_smooth_quant/fq_output_0/output_low" type="Const" version="opset1">
			<data element_type="f32" shape="" offset="60499464" size="4" />
			<output>
				<port id="0" precision="FP32" />
			</output>
		</layer>
		<layer id="346" name="__module.encoder.layer.2.attention.self/aten::reshape/Reshape_0_0/nncf_smooth_quant/fq_output_0/output_high" type="Const" version="opset1">
			<data element_type="f32" shape="" offset="60499468" size="4" />
			<output>
				<port id="0" precision="FP32" />
			</output>
		</layer>
		<layer id="347" name="__module.encoder.layer.2.attention.self/aten::reshape/Reshape_0_0/nncf_smooth_quant/fq_output_0" type="FakeQuantize" version="opset1">
			<data levels="256" auto_broadcast="numpy" />
			<input>
				<port id="0" precision="FP32">
					<dim>-1</dim>
					<dim>-1</dim>
					<dim>1024</dim>
				</port>
				<port id="1" precision="FP32" />
				<port id="2" precision="FP32" />
				<port id="3" precision="FP32" />
				<port id="4" precision="FP32" />
			</input>
			<output>
				<port id="5" precision="FP32">
					<dim>-1</dim>
					<dim>-1</dim>
					<dim>1024</dim>
				</port>
			</output>
		</layer>
		<layer id="348" name="Constant_1157299" type="Const" version="opset1">
			<data element_type="i8" shape="1024, 1024" offset="60499472" size="1048576" />
			<output>
				<port id="0" precision="I8">
					<dim>1024</dim>
					<dim>1024</dim>
				</port>
			</output>
		</layer>
		<layer id="349" name="Convert_1157300" type="Convert" version="opset1">
			<data destination_type="f32" />
			<input>
				<port id="0" precision="I8">
					<dim>1024</dim>
					<dim>1024</dim>
				</port>
			</input>
			<output>
				<port id="1" precision="FP32">
					<dim>1024</dim>
					<dim>1024</dim>
				</port>
			</output>
		</layer>
		<layer id="350" name="Constant_1157301" type="Const" version="opset1">
			<data element_type="f32" shape="1024, 1" offset="61548048" size="4096" />
			<output>
				<port id="0" precision="FP32">
					<dim>1024</dim>
					<dim>1</dim>
				</port>
			</output>
		</layer>
		<layer id="351" name="__module.encoder.layer.2.attention.output.dense/aten::linear/MatMul/fq_weights_1" type="Multiply" version="opset1">
			<data auto_broadcast="numpy" />
			<input>
				<port id="0" precision="FP32">
					<dim>1024</dim>
					<dim>1024</dim>
				</port>
				<port id="1" precision="FP32">
					<dim>1024</dim>
					<dim>1</dim>
				</port>
			</input>
			<output>
				<port id="2" precision="FP32">
					<dim>1024</dim>
					<dim>1024</dim>
				</port>
			</output>
		</layer>
		<layer id="352" name="__module.encoder.layer.2.attention.output.dense/aten::linear/MatMul" type="MatMul" version="opset1">
			<data transpose_a="false" transpose_b="true" />
			<input>
				<port id="0" precision="FP32">
					<dim>-1</dim>
					<dim>-1</dim>
					<dim>1024</dim>
				</port>
				<port id="1" precision="FP32">
					<dim>1024</dim>
					<dim>1024</dim>
				</port>
			</input>
			<output>
				<port id="2" precision="FP32">
					<dim>-1</dim>
					<dim>-1</dim>
					<dim>1024</dim>
				</port>
			</output>
		</layer>
		<layer id="353" name="Constant_62580" type="Const" version="opset1">
			<data element_type="f32" shape="1, 1, 1024" offset="61552144" size="4096" />
			<output>
				<port id="0" precision="FP32">
					<dim>1</dim>
					<dim>1</dim>
					<dim>1024</dim>
				</port>
			</output>
		</layer>
		<layer id="354" name="__module.encoder.layer.2.attention.output.dense/aten::linear/Add" type="Add" version="opset1">
			<data auto_broadcast="numpy" />
			<input>
				<port id="0" precision="FP32">
					<dim>-1</dim>
					<dim>-1</dim>
					<dim>1024</dim>
				</port>
				<port id="1" precision="FP32">
					<dim>1</dim>
					<dim>1</dim>
					<dim>1024</dim>
				</port>
			</input>
			<output>
				<port id="2" precision="FP32" names="341,input.11">
					<dim>-1</dim>
					<dim>-1</dim>
					<dim>1024</dim>
				</port>
			</output>
		</layer>
		<layer id="355" name="__module.encoder.layer.2.attention.output/aten::add/Add" type="Add" version="opset1">
			<data auto_broadcast="numpy" />
			<input>
				<port id="0" precision="FP32">
					<dim>-1</dim>
					<dim>-1</dim>
					<dim>1024</dim>
				</port>
				<port id="1" precision="FP32">
					<dim>-1</dim>
					<dim>-1</dim>
					<dim>1024</dim>
				</port>
			</input>
			<output>
				<port id="2" precision="FP32" names="343">
					<dim>-1</dim>
					<dim>-1</dim>
					<dim>1024</dim>
				</port>
			</output>
		</layer>
		<layer id="356" name="__module.encoder.layer.2.attention.output.LayerNorm/aten::layer_norm/Multiply" type="Const" version="opset1">
			<data element_type="i32" shape="1" offset="31909124" size="4" />
			<output>
				<port id="0" precision="I32">
					<dim>1</dim>
				</port>
			</output>
		</layer>
		<layer id="357" name="__module.encoder.layer.2.attention.output.LayerNorm/aten::layer_norm/MVN" type="MVN" version="opset6">
			<data eps="9.999999960041972e-13" normalize_variance="true" eps_mode="INSIDE_SQRT" />
			<input>
				<port id="0" precision="FP32">
					<dim>-1</dim>
					<dim>-1</dim>
					<dim>1024</dim>
				</port>
				<port id="1" precision="I32">
					<dim>1</dim>
				</port>
			</input>
			<output>
				<port id="2" precision="FP32">
					<dim>-1</dim>
					<dim>-1</dim>
					<dim>1024</dim>
				</port>
			</output>
		</layer>
		<layer id="358" name="Constant_62581" type="Const" version="opset1">
			<data element_type="f32" shape="1, 1, 1024" offset="61556240" size="4096" />
			<output>
				<port id="0" precision="FP32">
					<dim>1</dim>
					<dim>1</dim>
					<dim>1024</dim>
				</port>
			</output>
		</layer>
		<layer id="359" name="__module.encoder.layer.2.attention.output.LayerNorm/aten::layer_norm/Multiply_1" type="Multiply" version="opset1">
			<data auto_broadcast="numpy" />
			<input>
				<port id="0" precision="FP32">
					<dim>-1</dim>
					<dim>-1</dim>
					<dim>1024</dim>
				</port>
				<port id="1" precision="FP32">
					<dim>1</dim>
					<dim>1</dim>
					<dim>1024</dim>
				</port>
			</input>
			<output>
				<port id="2" precision="FP32">
					<dim>-1</dim>
					<dim>-1</dim>
					<dim>1024</dim>
				</port>
			</output>
		</layer>
		<layer id="360" name="Constant_62582" type="Const" version="opset1">
			<data element_type="f32" shape="1, 1, 1024" offset="61560336" size="4096" />
			<output>
				<port id="0" precision="FP32">
					<dim>1</dim>
					<dim>1</dim>
					<dim>1024</dim>
				</port>
			</output>
		</layer>
		<layer id="361" name="__module.encoder.layer.2.attention.output.LayerNorm/aten::layer_norm/Add" type="Add" version="opset1">
			<data auto_broadcast="numpy" />
			<input>
				<port id="0" precision="FP32">
					<dim>-1</dim>
					<dim>-1</dim>
					<dim>1024</dim>
				</port>
				<port id="1" precision="FP32">
					<dim>1</dim>
					<dim>1</dim>
					<dim>1024</dim>
				</port>
			</input>
			<output>
				<port id="2" precision="FP32" names="347,input_tensor.5">
					<dim>-1</dim>
					<dim>-1</dim>
					<dim>1024</dim>
				</port>
			</output>
		</layer>
		<layer id="362" name="__module.encoder.layer.2.attention.output.LayerNorm/aten::layer_norm/Add_0_0/nncf_smooth_quant/scale" type="Const" version="opset1">
			<data element_type="f32" shape="1, 1, 1024" offset="61564432" size="4096" />
			<output>
				<port id="0" precision="FP32">
					<dim>1</dim>
					<dim>1</dim>
					<dim>1024</dim>
				</port>
			</output>
		</layer>
		<layer id="363" name="__module.encoder.layer.2.attention.output.LayerNorm/aten::layer_norm/Add_0_0/nncf_smooth_quant" type="Multiply" version="opset1">
			<data auto_broadcast="numpy" />
			<input>
				<port id="0" precision="FP32">
					<dim>-1</dim>
					<dim>-1</dim>
					<dim>1024</dim>
				</port>
				<port id="1" precision="FP32">
					<dim>1</dim>
					<dim>1</dim>
					<dim>1024</dim>
				</port>
			</input>
			<output>
				<port id="2" precision="FP32">
					<dim>-1</dim>
					<dim>-1</dim>
					<dim>1024</dim>
				</port>
			</output>
		</layer>
		<layer id="364" name="__module.encoder.layer.2.attention.output.LayerNorm/aten::layer_norm/Add_0_0/nncf_smooth_quant/fq_output_0/input_low" type="Const" version="opset1">
			<data element_type="f32" shape="" offset="61568528" size="4" />
			<output>
				<port id="0" precision="FP32" />
			</output>
		</layer>
		<layer id="365" name="__module.encoder.layer.2.attention.output.LayerNorm/aten::layer_norm/Add_0_0/nncf_smooth_quant/fq_output_0/input_high" type="Const" version="opset1">
			<data element_type="f32" shape="" offset="61568532" size="4" />
			<output>
				<port id="0" precision="FP32" />
			</output>
		</layer>
		<layer id="366" name="__module.encoder.layer.2.attention.output.LayerNorm/aten::layer_norm/Add_0_0/nncf_smooth_quant/fq_output_0/output_low" type="Const" version="opset1">
			<data element_type="f32" shape="" offset="61568528" size="4" />
			<output>
				<port id="0" precision="FP32" />
			</output>
		</layer>
		<layer id="367" name="__module.encoder.layer.2.attention.output.LayerNorm/aten::layer_norm/Add_0_0/nncf_smooth_quant/fq_output_0/output_high" type="Const" version="opset1">
			<data element_type="f32" shape="" offset="61568532" size="4" />
			<output>
				<port id="0" precision="FP32" />
			</output>
		</layer>
		<layer id="368" name="__module.encoder.layer.2.attention.output.LayerNorm/aten::layer_norm/Add_0_0/nncf_smooth_quant/fq_output_0" type="FakeQuantize" version="opset1">
			<data levels="256" auto_broadcast="numpy" />
			<input>
				<port id="0" precision="FP32">
					<dim>-1</dim>
					<dim>-1</dim>
					<dim>1024</dim>
				</port>
				<port id="1" precision="FP32" />
				<port id="2" precision="FP32" />
				<port id="3" precision="FP32" />
				<port id="4" precision="FP32" />
			</input>
			<output>
				<port id="5" precision="FP32">
					<dim>-1</dim>
					<dim>-1</dim>
					<dim>1024</dim>
				</port>
			</output>
		</layer>
		<layer id="369" name="Constant_1157303" type="Const" version="opset1">
			<data element_type="i8" shape="4096, 1024" offset="61568536" size="4194304" />
			<output>
				<port id="0" precision="I8">
					<dim>4096</dim>
					<dim>1024</dim>
				</port>
			</output>
		</layer>
		<layer id="370" name="Convert_1157304" type="Convert" version="opset1">
			<data destination_type="f32" />
			<input>
				<port id="0" precision="I8">
					<dim>4096</dim>
					<dim>1024</dim>
				</port>
			</input>
			<output>
				<port id="1" precision="FP32">
					<dim>4096</dim>
					<dim>1024</dim>
				</port>
			</output>
		</layer>
		<layer id="371" name="Constant_1157305" type="Const" version="opset1">
			<data element_type="f32" shape="4096, 1" offset="65762840" size="16384" />
			<output>
				<port id="0" precision="FP32">
					<dim>4096</dim>
					<dim>1</dim>
				</port>
			</output>
		</layer>
		<layer id="372" name="__module.encoder.layer.2.intermediate.dense/aten::linear/MatMul/fq_weights_1" type="Multiply" version="opset1">
			<data auto_broadcast="numpy" />
			<input>
				<port id="0" precision="FP32">
					<dim>4096</dim>
					<dim>1024</dim>
				</port>
				<port id="1" precision="FP32">
					<dim>4096</dim>
					<dim>1</dim>
				</port>
			</input>
			<output>
				<port id="2" precision="FP32">
					<dim>4096</dim>
					<dim>1024</dim>
				</port>
			</output>
		</layer>
		<layer id="373" name="__module.encoder.layer.2.intermediate.dense/aten::linear/MatMul" type="MatMul" version="opset1">
			<data transpose_a="false" transpose_b="true" />
			<input>
				<port id="0" precision="FP32">
					<dim>-1</dim>
					<dim>-1</dim>
					<dim>1024</dim>
				</port>
				<port id="1" precision="FP32">
					<dim>4096</dim>
					<dim>1024</dim>
				</port>
			</input>
			<output>
				<port id="2" precision="FP32">
					<dim>-1</dim>
					<dim>-1</dim>
					<dim>4096</dim>
				</port>
			</output>
		</layer>
		<layer id="374" name="Constant_62583" type="Const" version="opset1">
			<data element_type="f32" shape="1, 1, 4096" offset="65779224" size="16384" />
			<output>
				<port id="0" precision="FP32">
					<dim>1</dim>
					<dim>1</dim>
					<dim>4096</dim>
				</port>
			</output>
		</layer>
		<layer id="375" name="__module.encoder.layer.2.intermediate.dense/aten::linear/Add" type="Add" version="opset1">
			<data auto_broadcast="numpy" />
			<input>
				<port id="0" precision="FP32">
					<dim>-1</dim>
					<dim>-1</dim>
					<dim>4096</dim>
				</port>
				<port id="1" precision="FP32">
					<dim>1</dim>
					<dim>1</dim>
					<dim>4096</dim>
				</port>
			</input>
			<output>
				<port id="2" precision="FP32" names="352">
					<dim>-1</dim>
					<dim>-1</dim>
					<dim>4096</dim>
				</port>
			</output>
		</layer>
		<layer id="376" name="__module.encoder.layer.2.intermediate.intermediate_act_fn/aten::gelu/Gelu" type="Gelu" version="opset7">
			<data approximation_mode="ERF" />
			<input>
				<port id="0" precision="FP32">
					<dim>-1</dim>
					<dim>-1</dim>
					<dim>4096</dim>
				</port>
			</input>
			<output>
				<port id="1" precision="FP32" names="353">
					<dim>-1</dim>
					<dim>-1</dim>
					<dim>4096</dim>
				</port>
			</output>
		</layer>
		<layer id="377" name="__module.encoder.layer.2.intermediate.intermediate_act_fn/aten::gelu/Gelu_0_0/nncf_smooth_quant/scale" type="Const" version="opset1">
			<data element_type="f32" shape="1, 1, 4096" offset="65795608" size="16384" />
			<output>
				<port id="0" precision="FP32">
					<dim>1</dim>
					<dim>1</dim>
					<dim>4096</dim>
				</port>
			</output>
		</layer>
		<layer id="378" name="__module.encoder.layer.2.intermediate.intermediate_act_fn/aten::gelu/Gelu_0_0/nncf_smooth_quant" type="Multiply" version="opset1">
			<data auto_broadcast="numpy" />
			<input>
				<port id="0" precision="FP32">
					<dim>-1</dim>
					<dim>-1</dim>
					<dim>4096</dim>
				</port>
				<port id="1" precision="FP32">
					<dim>1</dim>
					<dim>1</dim>
					<dim>4096</dim>
				</port>
			</input>
			<output>
				<port id="2" precision="FP32">
					<dim>-1</dim>
					<dim>-1</dim>
					<dim>4096</dim>
				</port>
			</output>
		</layer>
		<layer id="379" name="__module.encoder.layer.2.intermediate.intermediate_act_fn/aten::gelu/Gelu_0_0/nncf_smooth_quant/fq_output_0/input_low" type="Const" version="opset1">
			<data element_type="f32" shape="" offset="65811992" size="4" />
			<output>
				<port id="0" precision="FP32" />
			</output>
		</layer>
		<layer id="380" name="__module.encoder.layer.2.intermediate.intermediate_act_fn/aten::gelu/Gelu_0_0/nncf_smooth_quant/fq_output_0/input_high" type="Const" version="opset1">
			<data element_type="f32" shape="" offset="65811996" size="4" />
			<output>
				<port id="0" precision="FP32" />
			</output>
		</layer>
…
		<edge from-layer="2092" from-port="0" to-layer="2096" to-port="1" />
		<edge from-layer="2093" from-port="0" to-layer="2096" to-port="2" />
		<edge from-layer="2094" from-port="0" to-layer="2096" to-port="3" />
		<edge from-layer="2095" from-port="0" to-layer="2096" to-port="4" />
		<edge from-layer="2096" from-port="5" to-layer="2098" to-port="0" />
		<edge from-layer="2097" from-port="0" to-layer="2098" to-port="1" />
		<edge from-layer="2098" from-port="2" to-layer="2100" to-port="0" />
		<edge from-layer="2099" from-port="0" to-layer="2100" to-port="1" />
		<edge from-layer="2100" from-port="2" to-layer="2128" to-port="0" />
		<edge from-layer="2101" from-port="0" to-layer="2102" to-port="0" />
		<edge from-layer="2102" from-port="1" to-layer="2104" to-port="0" />
		<edge from-layer="2103" from-port="0" to-layer="2104" to-port="1" />
		<edge from-layer="2104" from-port="2" to-layer="2105" to-port="1" />
		<edge from-layer="2105" from-port="2" to-layer="2107" to-port="0" />
		<edge from-layer="2106" from-port="0" to-layer="2107" to-port="1" />
		<edge from-layer="2107" from-port="2" to-layer="2112" to-port="0" />
		<edge from-layer="2108" from-port="0" to-layer="2112" to-port="1" />
		<edge from-layer="2109" from-port="0" to-layer="2112" to-port="2" />
		<edge from-layer="2110" from-port="0" to-layer="2112" to-port="3" />
		<edge from-layer="2111" from-port="0" to-layer="2112" to-port="4" />
		<edge from-layer="2112" from-port="5" to-layer="2114" to-port="0" />
		<edge from-layer="2113" from-port="0" to-layer="2114" to-port="1" />
		<edge from-layer="2114" from-port="2" to-layer="2116" to-port="0" />
		<edge from-layer="2115" from-port="0" to-layer="2116" to-port="1" />
		<edge from-layer="2116" from-port="2" to-layer="2128" to-port="1" />
		<edge from-layer="2117" from-port="0" to-layer="2118" to-port="0" />
		<edge from-layer="2118" from-port="1" to-layer="2120" to-port="0" />
		<edge from-layer="2119" from-port="0" to-layer="2120" to-port="1" />
		<edge from-layer="2120" from-port="2" to-layer="2121" to-port="1" />
		<edge from-layer="2121" from-port="2" to-layer="2123" to-port="0" />
		<edge from-layer="2122" from-port="0" to-layer="2123" to-port="1" />
		<edge from-layer="2123" from-port="2" to-layer="2125" to-port="0" />
		<edge from-layer="2124" from-port="0" to-layer="2125" to-port="1" />
		<edge from-layer="2125" from-port="2" to-layer="2127" to-port="0" />
		<edge from-layer="2126" from-port="0" to-layer="2127" to-port="1" />
		<edge from-layer="2127" from-port="2" to-layer="2128" to-port="2" />
		<edge from-layer="2128" from-port="4" to-layer="2130" to-port="0" />
		<edge from-layer="2129" from-port="0" to-layer="2130" to-port="1" />
		<edge from-layer="2130" from-port="2" to-layer="2132" to-port="0" />
		<edge from-layer="2131" from-port="0" to-layer="2132" to-port="1" />
		<edge from-layer="2132" from-port="2" to-layer="2134" to-port="0" />
		<edge from-layer="2133" from-port="0" to-layer="2134" to-port="1" />
		<edge from-layer="2134" from-port="2" to-layer="2139" to-port="0" />
		<edge from-layer="2135" from-port="0" to-layer="2139" to-port="1" />
		<edge from-layer="2136" from-port="0" to-layer="2139" to-port="2" />
		<edge from-layer="2137" from-port="0" to-layer="2139" to-port="3" />
		<edge from-layer="2138" from-port="0" to-layer="2139" to-port="4" />
		<edge from-layer="2139" from-port="5" to-layer="2144" to-port="0" />
		<edge from-layer="2140" from-port="0" to-layer="2141" to-port="0" />
		<edge from-layer="2141" from-port="1" to-layer="2143" to-port="0" />
		<edge from-layer="2142" from-port="0" to-layer="2143" to-port="1" />
		<edge from-layer="2143" from-port="2" to-layer="2144" to-port="1" />
		<edge from-layer="2144" from-port="2" to-layer="2146" to-port="0" />
		<edge from-layer="2145" from-port="0" to-layer="2146" to-port="1" />
		<edge from-layer="2146" from-port="2" to-layer="2147" to-port="0" />
		<edge from-layer="2147" from-port="2" to-layer="2149" to-port="0" />
		<edge from-layer="2148" from-port="0" to-layer="2149" to-port="1" />
		<edge from-layer="2149" from-port="2" to-layer="2151" to-port="0" />
		<edge from-layer="2150" from-port="0" to-layer="2151" to-port="1" />
		<edge from-layer="2151" from-port="2" to-layer="2153" to-port="0" />
		<edge from-layer="2152" from-port="0" to-layer="2153" to-port="1" />
		<edge from-layer="2153" from-port="2" to-layer="2183" to-port="1" />
		<edge from-layer="2153" from-port="2" to-layer="2155" to-port="0" />
		<edge from-layer="2154" from-port="0" to-layer="2155" to-port="1" />
		<edge from-layer="2155" from-port="2" to-layer="2160" to-port="0" />
		<edge from-layer="2156" from-port="0" to-layer="2160" to-port="1" />
		<edge from-layer="2157" from-port="0" to-layer="2160" to-port="2" />
		<edge from-layer="2158" from-port="0" to-layer="2160" to-port="3" />
		<edge from-layer="2159" from-port="0" to-layer="2160" to-port="4" />
		<edge from-layer="2160" from-port="5" to-layer="2165" to-port="0" />
		<edge from-layer="2161" from-port="0" to-layer="2162" to-port="0" />
		<edge from-layer="2162" from-port="1" to-layer="2164" to-port="0" />
		<edge from-layer="2163" from-port="0" to-layer="2164" to-port="1" />
		<edge from-layer="2164" from-port="2" to-layer="2165" to-port="1" />
		<edge from-layer="2165" from-port="2" to-layer="2167" to-port="0" />
		<edge from-layer="2166" from-port="0" to-layer="2167" to-port="1" />
		<edge from-layer="2167" from-port="2" to-layer="2168" to-port="0" />
		<edge from-layer="2168" from-port="1" to-layer="2170" to-port="0" />
		<edge from-layer="2169" from-port="0" to-layer="2170" to-port="1" />
		<edge from-layer="2170" from-port="2" to-layer="2175" to-port="0" />
		<edge from-layer="2171" from-port="0" to-layer="2175" to-port="1" />
		<edge from-layer="2172" from-port="0" to-layer="2175" to-port="2" />
		<edge from-layer="2173" from-port="0" to-layer="2175" to-port="3" />
		<edge from-layer="2174" from-port="0" to-layer="2175" to-port="4" />
		<edge from-layer="2175" from-port="5" to-layer="2180" to-port="0" />
		<edge from-layer="2176" from-port="0" to-layer="2177" to-port="0" />
		<edge from-layer="2177" from-port="1" to-layer="2179" to-port="0" />
		<edge from-layer="2178" from-port="0" to-layer="2179" to-port="1" />
		<edge from-layer="2179" from-port="2" to-layer="2180" to-port="1" />
		<edge from-layer="2180" from-port="2" to-layer="2182" to-port="0" />
		<edge from-layer="2181" from-port="0" to-layer="2182" to-port="1" />
		<edge from-layer="2182" from-port="2" to-layer="2183" to-port="0" />
		<edge from-layer="2183" from-port="2" to-layer="2185" to-port="0" />
		<edge from-layer="2184" from-port="0" to-layer="2185" to-port="1" />
		<edge from-layer="2185" from-port="2" to-layer="2187" to-port="0" />
		<edge from-layer="2186" from-port="0" to-layer="2187" to-port="1" />
		<edge from-layer="2187" from-port="2" to-layer="2189" to-port="0" />
		<edge from-layer="2188" from-port="0" to-layer="2189" to-port="1" />
		<edge from-layer="2189" from-port="2" to-layer="2259" to-port="1" />
		<edge from-layer="2189" from-port="2" to-layer="2191" to-port="0" />
		<edge from-layer="2190" from-port="0" to-layer="2191" to-port="1" />
		<edge from-layer="2191" from-port="2" to-layer="2196" to-port="0" />
		<edge from-layer="2192" from-port="0" to-layer="2196" to-port="1" />
		<edge from-layer="2193" from-port="0" to-layer="2196" to-port="2" />
		<edge from-layer="2194" from-port="0" to-layer="2196" to-port="3" />
		<edge from-layer="2195" from-port="0" to-layer="2196" to-port="4" />
		<edge from-layer="2196" from-port="5" to-layer="2201" to-port="0" />
		<edge from-layer="2196" from-port="5" to-layer="2233" to-port="0" />
		<edge from-layer="2196" from-port="5" to-layer="2217" to-port="0" />
		<edge from-layer="2197" from-port="0" to-layer="2198" to-port="0" />
		<edge from-layer="2198" from-port="1" to-layer="2200" to-port="0" />
		<edge from-layer="2199" from-port="0" to-layer="2200" to-port="1" />
		<edge from-layer="2200" from-port="2" to-layer="2201" to-port="1" />
		<edge from-layer="2201" from-port="2" to-layer="2203" to-port="0" />
		<edge from-layer="2202" from-port="0" to-layer="2203" to-port="1" />
		<edge from-layer="2203" from-port="2" to-layer="2208" to-port="0" />
		<edge from-layer="2204" from-port="0" to-layer="2208" to-port="1" />
		<edge from-layer="2205" from-port="0" to-layer="2208" to-port="2" />
		<edge from-layer="2206" from-port="0" to-layer="2208" to-port="3" />
		<edge from-layer="2207" from-port="0" to-layer="2208" to-port="4" />
		<edge from-layer="2208" from-port="5" to-layer="2210" to-port="0" />
		<edge from-layer="2209" from-port="0" to-layer="2210" to-port="1" />
		<edge from-layer="2210" from-port="2" to-layer="2212" to-port="0" />
		<edge from-layer="2211" from-port="0" to-layer="2212" to-port="1" />
		<edge from-layer="2212" from-port="2" to-layer="2240" to-port="0" />
		<edge from-layer="2213" from-port="0" to-layer="2214" to-port="0" />
		<edge from-layer="2214" from-port="1" to-layer="2216" to-port="0" />
		<edge from-layer="2215" from-port="0" to-layer="2216" to-port="1" />
		<edge from-layer="2216" from-port="2" to-layer="2217" to-port="1" />
		<edge from-layer="2217" from-port="2" to-layer="2219" to-port="0" />
		<edge from-layer="2218" from-port="0" to-layer="2219" to-port="1" />
		<edge from-layer="2219" from-port="2" to-layer="2224" to-port="0" />
		<edge from-layer="2220" from-port="0" to-layer="2224" to-port="1" />
		<edge from-layer="2221" from-port="0" to-layer="2224" to-port="2" />
		<edge from-layer="2222" from-port="0" to-layer="2224" to-port="3" />
		<edge from-layer="2223" from-port="0" to-layer="2224" to-port="4" />
		<edge from-layer="2224" from-port="5" to-layer="2226" to-port="0" />
		<edge from-layer="2225" from-port="0" to-layer="2226" to-port="1" />
		<edge from-layer="2226" from-port="2" to-layer="2228" to-port="0" />
		<edge from-layer="2227" from-port="0" to-layer="2228" to-port="1" />
		<edge from-layer="2228" from-port="2" to-layer="2240" to-port="1" />
		<edge from-layer="2229" from-port="0" to-layer="2230" to-port="0" />
		<edge from-layer="2230" from-port="1" to-layer="2232" to-port="0" />
		<edge from-layer="2231" from-port="0" to-layer="2232" to-port="1" />
		<edge from-layer="2232" from-port="2" to-layer="2233" to-port="1" />
		<edge from-layer="2233" from-port="2" to-layer="2235" to-port="0" />
		<edge from-layer="2234" from-port="0" to-layer="2235" to-port="1" />
		<edge from-layer="2235" from-port="2" to-layer="2237" to-port="0" />
		<edge from-layer="2236" from-port="0" to-layer="2237" to-port="1" />
		<edge from-layer="2237" from-port="2" to-layer="2239" to-port="0" />
		<edge from-layer="2238" from-port="0" to-layer="2239" to-port="1" />
		<edge from-layer="2239" from-port="2" to-layer="2240" to-port="2" />
		<edge from-layer="2240" from-port="4" to-layer="2242" to-port="0" />
		<edge from-layer="2241" from-port="0" to-layer="2242" to-port="1" />
		<edge from-layer="2242" from-port="2" to-layer="2244" to-port="0" />
		<edge from-layer="2243" from-port="0" to-layer="2244" to-port="1" />
		<edge from-layer="2244" from-port="2" to-layer="2246" to-port="0" />
		<edge from-layer="2245" from-port="0" to-layer="2246" to-port="1" />
		<edge from-layer="2246" from-port="2" to-layer="2251" to-port="0" />
		<edge from-layer="2247" from-port="0" to-layer="2251" to-port="1" />
		<edge from-layer="2248" from-port="0" to-layer="2251" to-port="2" />
		<edge from-layer="2249" from-port="0" to-layer="2251" to-port="3" />
		<edge from-layer="2250" from-port="0" to-layer="2251" to-port="4" />
		<edge from-layer="2251" from-port="5" to-layer="2256" to-port="0" />
		<edge from-layer="2252" from-port="0" to-layer="2253" to-port="0" />
		<edge from-layer="2253" from-port="1" to-layer="2255" to-port="0" />
		<edge from-layer="2254" from-port="0" to-layer="2255" to-port="1" />
		<edge from-layer="2255" from-port="2" to-layer="2256" to-port="1" />
		<edge from-layer="2256" from-port="2" to-layer="2258" to-port="0" />
		<edge from-layer="2257" from-port="0" to-layer="2258" to-port="1" />
		<edge from-layer="2258" from-port="2" to-layer="2259" to-port="0" />
		<edge from-layer="2259" from-port="2" to-layer="2261" to-port="0" />
		<edge from-layer="2260" from-port="0" to-layer="2261" to-port="1" />
		<edge from-layer="2261" from-port="2" to-layer="2263" to-port="0" />
		<edge from-layer="2262" from-port="0" to-layer="2263" to-port="1" />
		<edge from-layer="2263" from-port="2" to-layer="2265" to-port="0" />
		<edge from-layer="2264" from-port="0" to-layer="2265" to-port="1" />
		<edge from-layer="2265" from-port="2" to-layer="2295" to-port="1" />
		<edge from-layer="2265" from-port="2" to-layer="2267" to-port="0" />
		<edge from-layer="2266" from-port="0" to-layer="2267" to-port="1" />
		<edge from-layer="2267" from-port="2" to-layer="2272" to-port="0" />
		<edge from-layer="2268" from-port="0" to-layer="2272" to-port="1" />
		<edge from-layer="2269" from-port="0" to-layer="2272" to-port="2" />
		<edge from-layer="2270" from-port="0" to-layer="2272" to-port="3" />
		<edge from-layer="2271" from-port="0" to-layer="2272" to-port="4" />
		<edge from-layer="2272" from-port="5" to-layer="2277" to-port="0" />
		<edge from-layer="2273" from-port="0" to-layer="2274" to-port="0" />
		<edge from-layer="2274" from-port="1" to-layer="2276" to-port="0" />
		<edge from-layer="2275" from-port="0" to-layer="2276" to-port="1" />
		<edge from-layer="2276" from-port="2" to-layer="2277" to-port="1" />
		<edge from-layer="2277" from-port="2" to-layer="2279" to-port="0" />
		<edge from-layer="2278" from-port="0" to-layer="2279" to-port="1" />
		<edge from-layer="2279" from-port="2" to-layer="2280" to-port="0" />
		<edge from-layer="2280" from-port="1" to-layer="2282" to-port="0" />
		<edge from-layer="2281" from-port="0" to-layer="2282" to-port="1" />
		<edge from-layer="2282" from-port="2" to-layer="2287" to-port="0" />
		<edge from-layer="2283" from-port="0" to-layer="2287" to-port="1" />
		<edge from-layer="2284" from-port="0" to-layer="2287" to-port="2" />
		<edge from-layer="2285" from-port="0" to-layer="2287" to-port="3" />
		<edge from-layer="2286" from-port="0" to-layer="2287" to-port="4" />
		<edge from-layer="2287" from-port="5" to-layer="2292" to-port="0" />
		<edge from-layer="2288" from-port="0" to-layer="2289" to-port="0" />
		<edge from-layer="2289" from-port="1" to-layer="2291" to-port="0" />
		<edge from-layer="2290" from-port="0" to-layer="2291" to-port="1" />
		<edge from-layer="2291" from-port="2" to-layer="2292" to-port="1" />
		<edge from-layer="2292" from-port="2" to-layer="2294" to-port="0" />
		<edge from-layer="2293" from-port="0" to-layer="2294" to-port="1" />
		<edge from-layer="2294" from-port="2" to-layer="2295" to-port="0" />
		<edge from-layer="2295" from-port="2" to-layer="2297" to-port="0" />
		<edge from-layer="2296" from-port="0" to-layer="2297" to-port="1" />
		<edge from-layer="2297" from-port="2" to-layer="2299" to-port="0" />
		<edge from-layer="2298" from-port="0" to-layer="2299" to-port="1" />
		<edge from-layer="2299" from-port="2" to-layer="2301" to-port="0" />
		<edge from-layer="2300" from-port="0" to-layer="2301" to-port="1" />
		<edge from-layer="2301" from-port="2" to-layer="2371" to-port="1" />
		<edge from-layer="2301" from-port="2" to-layer="2303" to-port="0" />
		<edge from-layer="2302" from-port="0" to-layer="2303" to-port="1" />
		<edge from-layer="2303" from-port="2" to-layer="2308" to-port="0" />
		<edge from-layer="2304" from-port="0" to-layer="2308" to-port="1" />
		<edge from-layer="2305" from-port="0" to-layer="2308" to-port="2" />
		<edge from-layer="2306" from-port="0" to-layer="2308" to-port="3" />
		<edge from-layer="2307" from-port="0" to-layer="2308" to-port="4" />
		<edge from-layer="2308" from-port="5" to-layer="2345" to-port="0" />
		<edge from-layer="2308" from-port="5" to-layer="2313" to-port="0" />
		<edge from-layer="2308" from-port="5" to-layer="2329" to-port="0" />
		<edge from-layer="2309" from-port="0" to-layer="2310" to-port="0" />
		<edge from-layer="2310" from-port="1" to-layer="2312" to-port="0" />
		<edge from-layer="2311" from-port="0" to-layer="2312" to-port="1" />
		<edge from-layer="2312" from-port="2" to-layer="2313" to-port="1" />
		<edge from-layer="2313" from-port="2" to-layer="2315" to-port="0" />
		<edge from-layer="2314" from-port="0" to-layer="2315" to-port="1" />
		<edge from-layer="2315" from-port="2" to-layer="2320" to-port="0" />
		<edge from-layer="2316" from-port="0" to-layer="2320" to-port="1" />
		<edge from-layer="2317" from-port="0" to-layer="2320" to-port="2" />
		<edge from-layer="2318" from-port="0" to-layer="2320" to-port="3" />
		<edge from-layer="2319" from-port="0" to-layer="2320" to-port="4" />
		<edge from-layer="2320" from-port="5" to-layer="2322" to-port="0" />
		<edge from-layer="2321" from-port="0" to-layer="2322" to-port="1" />
		<edge from-layer="2322" from-port="2" to-layer="2324" to-port="0" />
		<edge from-layer="2323" from-port="0" to-layer="2324" to-port="1" />
		<edge from-layer="2324" from-port="2" to-layer="2352" to-port="0" />
		<edge from-layer="2325" from-port="0" to-layer="2326" to-port="0" />
		<edge from-layer="2326" from-port="1" to-layer="2328" to-port="0" />
		<edge from-layer="2327" from-port="0" to-layer="2328" to-port="1" />
		<edge from-layer="2328" from-port="2" to-layer="2329" to-port="1" />
		<edge from-layer="2329" from-port="2" to-layer="2331" to-port="0" />
		<edge from-layer="2330" from-port="0" to-layer="2331" to-port="1" />
		<edge from-layer="2331" from-port="2" to-layer="2336" to-port="0" />
		<edge from-layer="2332" from-port="0" to-layer="2336" to-port="1" />
		<edge from-layer="2333" from-port="0" to-layer="2336" to-port="2" />
		<edge from-layer="2334" from-port="0" to-layer="2336" to-port="3" />
		<edge from-layer="2335" from-port="0" to-layer="2336" to-port="4" />
		<edge from-layer="2336" from-port="5" to-layer="2338" to-port="0" />
		<edge from-layer="2337" from-port="0" to-layer="2338" to-port="1" />
		<edge from-layer="2338" from-port="2" to-layer="2340" to-port="0" />
		<edge from-layer="2339" from-port="0" to-layer="2340" to-port="1" />
		<edge from-layer="2340" from-port="2" to-layer="2352" to-port="1" />
		<edge from-layer="2341" from-port="0" to-layer="2342" to-port="0" />
		<edge from-layer="2342" from-port="1" to-layer="2344" to-port="0" />
		<edge from-layer="2343" from-port="0" to-layer="2344" to-port="1" />
		<edge from-layer="2344" from-port="2" to-layer="2345" to-port="1" />
		<edge from-layer="2345" from-port="2" to-layer="2347" to-port="0" />
		<edge from-layer="2346" from-port="0" to-layer="2347" to-port="1" />
		<edge from-layer="2347" from-port="2" to-layer="2349" to-port="0" />
		<edge from-layer="2348" from-port="0" to-layer="2349" to-port="1" />
		<edge from-layer="2349" from-port="2" to-layer="2351" to-port="0" />
		<edge from-layer="2350" from-port="0" to-layer="2351" to-port="1" />
		<edge from-layer="2351" from-port="2" to-layer="2352" to-port="2" />
		<edge from-layer="2352" from-port="4" to-layer="2354" to-port="0" />
		<edge from-layer="2353" from-port="0" to-layer="2354" to-port="1" />
		<edge from-layer="2354" from-port="2" to-layer="2356" to-port="0" />
		<edge from-layer="2355" from-port="0" to-layer="2356" to-port="1" />
		<edge from-layer="2356" from-port="2" to-layer="2358" to-port="0" />
		<edge from-layer="2357" from-port="0" to-layer="2358" to-port="1" />
		<edge from-layer="2358" from-port="2" to-layer="2363" to-port="0" />
		<edge from-layer="2359" from-port="0" to-layer="2363" to-port="1" />
		<edge from-layer="2360" from-port="0" to-layer="2363" to-port="2" />
		<edge from-layer="2361" from-port="0" to-layer="2363" to-port="3" />
		<edge from-layer="2362" from-port="0" to-layer="2363" to-port="4" />
		<edge from-layer="2363" from-port="5" to-layer="2368" to-port="0" />
		<edge from-layer="2364" from-port="0" to-layer="2365" to-port="0" />
		<edge from-layer="2365" from-port="1" to-layer="2367" to-port="0" />
		<edge from-layer="2366" from-port="0" to-layer="2367" to-port="1" />
		<edge from-layer="2367" from-port="2" to-layer="2368" to-port="1" />
		<edge from-layer="2368" from-port="2" to-layer="2370" to-port="0" />
		<edge from-layer="2369" from-port="0" to-layer="2370" to-port="1" />
		<edge from-layer="2370" from-port="2" to-layer="2371" to-port="0" />
		<edge from-layer="2371" from-port="2" to-layer="2373" to-port="0" />
		<edge from-layer="2372" from-port="0" to-layer="2373" to-port="1" />
		<edge from-layer="2373" from-port="2" to-layer="2375" to-port="0" />
		<edge from-layer="2374" from-port="0" to-layer="2375" to-port="1" />
		<edge from-layer="2375" from-port="2" to-layer="2377" to-port="0" />
		<edge from-layer="2376" from-port="0" to-layer="2377" to-port="1" />
		<edge from-layer="2377" from-port="2" to-layer="2379" to-port="0" />
		<edge from-layer="2377" from-port="2" to-layer="2407" to-port="1" />
		<edge from-layer="2378" from-port="0" to-layer="2379" to-port="1" />
		<edge from-layer="2379" from-port="2" to-layer="2384" to-port="0" />
		<edge from-layer="2380" from-port="0" to-layer="2384" to-port="1" />
		<edge from-layer="2381" from-port="0" to-layer="2384" to-port="2" />
		<edge from-layer="2382" from-port="0" to-layer="2384" to-port="3" />
		<edge from-layer="2383" from-port="0" to-layer="2384" to-port="4" />
		<edge from-layer="2384" from-port="5" to-layer="2389" to-port="0" />
		<edge from-layer="2385" from-port="0" to-layer="2386" to-port="0" />
		<edge from-layer="2386" from-port="1" to-layer="2388" to-port="0" />
		<edge from-layer="2387" from-port="0" to-layer="2388" to-port="1" />
		<edge from-layer="2388" from-port="2" to-layer="2389" to-port="1" />
		<edge from-layer="2389" from-port="2" to-layer="2391" to-port="0" />
		<edge from-layer="2390" from-port="0" to-layer="2391" to-port="1" />
		<edge from-layer="2391" from-port="2" to-layer="2392" to-port="0" />
		<edge from-layer="2392" from-port="1" to-layer="2394" to-port="0" />
		<edge from-layer="2393" from-port="0" to-layer="2394" to-port="1" />
		<edge from-layer="2394" from-port="2" to-layer="2399" to-port="0" />
		<edge from-layer="2395" from-port="0" to-layer="2399" to-port="1" />
		<edge from-layer="2396" from-port="0" to-layer="2399" to-port="2" />
		<edge from-layer="2397" from-port="0" to-layer="2399" to-port="3" />
		<edge from-layer="2398" from-port="0" to-layer="2399" to-port="4" />
		<edge from-layer="2399" from-port="5" to-layer="2404" to-port="0" />
		<edge from-layer="2400" from-port="0" to-layer="2401" to-port="0" />
		<edge from-layer="2401" from-port="1" to-layer="2403" to-port="0" />
		<edge from-layer="2402" from-port="0" to-layer="2403" to-port="1" />
		<edge from-layer="2403" from-port="2" to-layer="2404" to-port="1" />
		<edge from-layer="2404" from-port="2" to-layer="2406" to-port="0" />
		<edge from-layer="2405" from-port="0" to-layer="2406" to-port="1" />
		<edge from-layer="2406" from-port="2" to-layer="2407" to-port="0" />
		<edge from-layer="2407" from-port="2" to-layer="2409" to-port="0" />
		<edge from-layer="2408" from-port="0" to-layer="2409" to-port="1" />
		<edge from-layer="2409" from-port="2" to-layer="2411" to-port="0" />
		<edge from-layer="2410" from-port="0" to-layer="2411" to-port="1" />
		<edge from-layer="2411" from-port="2" to-layer="2413" to-port="0" />
		<edge from-layer="2412" from-port="0" to-layer="2413" to-port="1" />
		<edge from-layer="2413" from-port="2" to-layer="2483" to-port="1" />
		<edge from-layer="2413" from-port="2" to-layer="2415" to-port="0" />
		<edge from-layer="2414" from-port="0" to-layer="2415" to-port="1" />
		<edge from-layer="2415" from-port="2" to-layer="2420" to-port="0" />
		<edge from-layer="2416" from-port="0" to-layer="2420" to-port="1" />
		<edge from-layer="2417" from-port="0" to-layer="2420" to-port="2" />
		<edge from-layer="2418" from-port="0" to-layer="2420" to-port="3" />
		<edge from-layer="2419" from-port="0" to-layer="2420" to-port="4" />
		<edge from-layer="2420" from-port="5" to-layer="2425" to-port="0" />
		<edge from-layer="2420" from-port="5" to-layer="2457" to-port="0" />
		<edge from-layer="2420" from-port="5" to-layer="2441" to-port="0" />
		<edge from-layer="2421" from-port="0" to-layer="2422" to-port="0" />
		<edge from-layer="2422" from-port="1" to-layer="2424" to-port="0" />
		<edge from-layer="2423" from-port="0" to-layer="2424" to-port="1" />
		<edge from-layer="2424" from-port="2" to-layer="2425" to-port="1" />
		<edge from-layer="2425" from-port="2" to-layer="2427" to-port="0" />
		<edge from-layer="2426" from-port="0" to-layer="2427" to-port="1" />
		<edge from-layer="2427" from-port="2" to-layer="2432" to-port="0" />
		<edge from-layer="2428" from-port="0" to-layer="2432" to-port="1" />
		<edge from-layer="2429" from-port="0" to-layer="2432" to-port="2" />
		<edge from-layer="2430" from-port="0" to-layer="2432" to-port="3" />
		<edge from-layer="2431" from-port="0" to-layer="2432" to-port="4" />
		<edge from-layer="2432" from-port="5" to-layer="2434" to-port="0" />
		<edge from-layer="2433" from-port="0" to-layer="2434" to-port="1" />
		<edge from-layer="2434" from-port="2" to-layer="2436" to-port="0" />
		<edge from-layer="2435" from-port="0" to-layer="2436" to-port="1" />
		<edge from-layer="2436" from-port="2" to-layer="2464" to-port="0" />
		<edge from-layer="2437" from-port="0" to-layer="2438" to-port="0" />
		<edge from-layer="2438" from-port="1" to-layer="2440" to-port="0" />
		<edge from-layer="2439" from-port="0" to-layer="2440" to-port="1" />
		<edge from-layer="2440" from-port="2" to-layer="2441" to-port="1" />
		<edge from-layer="2441" from-port="2" to-layer="2443" to-port="0" />
		<edge from-layer="2442" from-port="0" to-layer="2443" to-port="1" />
		<edge from-layer="2443" from-port="2" to-layer="2448" to-port="0" />
		<edge from-layer="2444" from-port="0" to-layer="2448" to-port="1" />
		<edge from-layer="2445" from-port="0" to-layer="2448" to-port="2" />
		<edge from-layer="2446" from-port="0" to-layer="2448" to-port="3" />
		<edge from-layer="2447" from-port="0" to-layer="2448" to-port="4" />
		<edge from-layer="2448" from-port="5" to-layer="2450" to-port="0" />
		<edge from-layer="2449" from-port="0" to-layer="2450" to-port="1" />
		<edge from-layer="2450" from-port="2" to-layer="2452" to-port="0" />
		<edge from-layer="2451" from-port="0" to-layer="2452" to-port="1" />
		<edge from-layer="2452" from-port="2" to-layer="2464" to-port="1" />
		<edge from-layer="2453" from-port="0" to-layer="2454" to-port="0" />
		<edge from-layer="2454" from-port="1" to-layer="2456" to-port="0" />
		<edge from-layer="2455" from-port="0" to-layer="2456" to-port="1" />
		<edge from-layer="2456" from-port="2" to-layer="2457" to-port="1" />
		<edge from-layer="2457" from-port="2" to-layer="2459" to-port="0" />
		<edge from-layer="2458" from-port="0" to-layer="2459" to-port="1" />
		<edge from-layer="2459" from-port="2" to-layer="2461" to-port="0" />
		<edge from-layer="2460" from-port="0" to-layer="2461" to-port="1" />
		<edge from-layer="2461" from-port="2" to-layer="2463" to-port="0" />
		<edge from-layer="2462" from-port="0" to-layer="2463" to-port="1" />
		<edge from-layer="2463" from-port="2" to-layer="2464" to-port="2" />
		<edge from-layer="2464" from-port="4" to-layer="2466" to-port="0" />
		<edge from-layer="2465" from-port="0" to-layer="2466" to-port="1" />
		<edge from-layer="2466" from-port="2" to-layer="2468" to-port="0" />
		<edge from-layer="2467" from-port="0" to-layer="2468" to-port="1" />
		<edge from-layer="2468" from-port="2" to-layer="2470" to-port="0" />
		<edge from-layer="2469" from-port="0" to-layer="2470" to-port="1" />
		<edge from-layer="2470" from-port="2" to-layer="2475" to-port="0" />
		<edge from-layer="2471" from-port="0" to-layer="2475" to-port="1" />
		<edge from-layer="2472" from-port="0" to-layer="2475" to-port="2" />
		<edge from-layer="2473" from-port="0" to-layer="2475" to-port="3" />
		<edge from-layer="2474" from-port="0" to-layer="2475" to-port="4" />
		<edge from-layer="2475" from-port="5" to-layer="2480" to-port="0" />
		<edge from-layer="2476" from-port="0" to-layer="2477" to-port="0" />
		<edge from-layer="2477" from-port="1" to-layer="2479" to-port="0" />
		<edge from-layer="2478" from-port="0" to-layer="2479" to-port="1" />
		<edge from-layer="2479" from-port="2" to-layer="2480" to-port="1" />
		<edge from-layer="2480" from-port="2" to-layer="2482" to-port="0" />
		<edge from-layer="2481" from-port="0" to-layer="2482" to-port="1" />
		<edge from-layer="2482" from-port="2" to-layer="2483" to-port="0" />
		<edge from-layer="2483" from-port="2" to-layer="2485" to-port="0" />
		<edge from-layer="2484" from-port="0" to-layer="2485" to-port="1" />
		<edge from-layer="2485" from-port="2" to-layer="2487" to-port="0" />
		<edge from-layer="2486" from-port="0" to-layer="2487" to-port="1" />
		<edge from-layer="2487" from-port="2" to-layer="2489" to-port="0" />
		<edge from-layer="2488" from-port="0" to-layer="2489" to-port="1" />
		<edge from-layer="2489" from-port="2" to-layer="2519" to-port="1" />
		<edge from-layer="2489" from-port="2" to-layer="2491" to-port="0" />
		<edge from-layer="2490" from-port="0" to-layer="2491" to-port="1" />
		<edge from-layer="2491" from-port="2" to-layer="2496" to-port="0" />
		<edge from-layer="2492" from-port="0" to-layer="2496" to-port="1" />
		<edge from-layer="2493" from-port="0" to-layer="2496" to-port="2" />
		<edge from-layer="2494" from-port="0" to-layer="2496" to-port="3" />
		<edge from-layer="2495" from-port="0" to-layer="2496" to-port="4" />
		<edge from-layer="2496" from-port="5" to-layer="2501" to-port="0" />
		<edge from-layer="2497" from-port="0" to-layer="2498" to-port="0" />
		<edge from-layer="2498" from-port="1" to-layer="2500" to-port="0" />
		<edge from-layer="2499" from-port="0" to-layer="2500" to-port="1" />
		<edge from-layer="2500" from-port="2" to-layer="2501" to-port="1" />
		<edge from-layer="2501" from-port="2" to-layer="2503" to-port="0" />
		<edge from-layer="2502" from-port="0" to-layer="2503" to-port="1" />
		<edge from-layer="2503" from-port="2" to-layer="2504" to-port="0" />
		<edge from-layer="2504" from-port="1" to-layer="2506" to-port="0" />
		<edge from-layer="2505" from-port="0" to-layer="2506" to-port="1" />
		<edge from-layer="2506" from-port="2" to-layer="2511" to-port="0" />
		<edge from-layer="2507" from-port="0" to-layer="2511" to-port="1" />
		<edge from-layer="2508" from-port="0" to-layer="2511" to-port="2" />
		<edge from-layer="2509" from-port="0" to-layer="2511" to-port="3" />
		<edge from-layer="2510" from-port="0" to-layer="2511" to-port="4" />
		<edge from-layer="2511" from-port="5" to-layer="2516" to-port="0" />
		<edge from-layer="2512" from-port="0" to-layer="2513" to-port="0" />
		<edge from-layer="2513" from-port="1" to-layer="2515" to-port="0" />
		<edge from-layer="2514" from-port="0" to-layer="2515" to-port="1" />
		<edge from-layer="2515" from-port="2" to-layer="2516" to-port="1" />
		<edge from-layer="2516" from-port="2" to-layer="2518" to-port="0" />
		<edge from-layer="2517" from-port="0" to-layer="2518" to-port="1" />
		<edge from-layer="2518" from-port="2" to-layer="2519" to-port="0" />
		<edge from-layer="2519" from-port="2" to-layer="2521" to-port="0" />
		<edge from-layer="2520" from-port="0" to-layer="2521" to-port="1" />
		<edge from-layer="2521" from-port="2" to-layer="2523" to-port="0" />
		<edge from-layer="2522" from-port="0" to-layer="2523" to-port="1" />
		<edge from-layer="2523" from-port="2" to-layer="2525" to-port="0" />
		<edge from-layer="2524" from-port="0" to-layer="2525" to-port="1" />
		<edge from-layer="2525" from-port="2" to-layer="2595" to-port="1" />
		<edge from-layer="2525" from-port="2" to-layer="2527" to-port="0" />
		<edge from-layer="2526" from-port="0" to-layer="2527" to-port="1" />
		<edge from-layer="2527" from-port="2" to-layer="2532" to-port="0" />
		<edge from-layer="2528" from-port="0" to-layer="2532" to-port="1" />
		<edge from-layer="2529" from-port="0" to-layer="2532" to-port="2" />
		<edge from-layer="2530" from-port="0" to-layer="2532" to-port="3" />
		<edge from-layer="2531" from-port="0" to-layer="2532" to-port="4" />
		<edge from-layer="2532" from-port="5" to-layer="2537" to-port="0" />
		<edge from-layer="2532" from-port="5" to-layer="2569" to-port="0" />
		<edge from-layer="2532" from-port="5" to-layer="2553" to-port="0" />
		<edge from-layer="2533" from-port="0" to-layer="2534" to-port="0" />
		<edge from-layer="2534" from-port="1" to-layer="2536" to-port="0" />
		<edge from-layer="2535" from-port="0" to-layer="2536" to-port="1" />
		<edge from-layer="2536" from-port="2" to-layer="2537" to-port="1" />
		<edge from-layer="2537" from-port="2" to-layer="2539" to-port="0" />
		<edge from-layer="2538" from-port="0" to-layer="2539" to-port="1" />
		<edge from-layer="2539" from-port="2" to-layer="2544" to-port="0" />
		<edge from-layer="2540" from-port="0" to-layer="2544" to-port="1" />
		<edge from-layer="2541" from-port="0" to-layer="2544" to-port="2" />
		<edge from-layer="2542" from-port="0" to-layer="2544" to-port="3" />
		<edge from-layer="2543" from-port="0" to-layer="2544" to-port="4" />
		<edge from-layer="2544" from-port="5" to-layer="2546" to-port="0" />
		<edge from-layer="2545" from-port="0" to-layer="2546" to-port="1" />
		<edge from-layer="2546" from-port="2" to-layer="2548" to-port="0" />
		<edge from-layer="2547" from-port="0" to-layer="2548" to-port="1" />
		<edge from-layer="2548" from-port="2" to-layer="2576" to-port="0" />
		<edge from-layer="2549" from-port="0" to-layer="2550" to-port="0" />
		<edge from-layer="2550" from-port="1" to-layer="2552" to-port="0" />
		<edge from-layer="2551" from-port="0" to-layer="2552" to-port="1" />
		<edge from-layer="2552" from-port="2" to-layer="2553" to-port="1" />
		<edge from-layer="2553" from-port="2" to-layer="2555" to-port="0" />
		<edge from-layer="2554" from-port="0" to-layer="2555" to-port="1" />
		<edge from-layer="2555" from-port="2" to-layer="2560" to-port="0" />
		<edge from-layer="2556" from-port="0" to-layer="2560" to-port="1" />
		<edge from-layer="2557" from-port="0" to-layer="2560" to-port="2" />
		<edge from-layer="2558" from-port="0" to-layer="2560" to-port="3" />
		<edge from-layer="2559" from-port="0" to-layer="2560" to-port="4" />
		<edge from-layer="2560" from-port="5" to-layer="2562" to-port="0" />
		<edge from-layer="2561" from-port="0" to-layer="2562" to-port="1" />
		<edge from-layer="2562" from-port="2" to-layer="2564" to-port="0" />
		<edge from-layer="2563" from-port="0" to-layer="2564" to-port="1" />
		<edge from-layer="2564" from-port="2" to-layer="2576" to-port="1" />
		<edge from-layer="2565" from-port="0" to-layer="2566" to-port="0" />
		<edge from-layer="2566" from-port="1" to-layer="2568" to-port="0" />
		<edge from-layer="2567" from-port="0" to-layer="2568" to-port="1" />
		<edge from-layer="2568" from-port="2" to-layer="2569" to-port="1" />
		<edge from-layer="2569" from-port="2" to-layer="2571" to-port="0" />
		<edge from-layer="2570" from-port="0" to-layer="2571" to-port="1" />
		<edge from-layer="2571" from-port="2" to-layer="2573" to-port="0" />
		<edge from-layer="2572" from-port="0" to-layer="2573" to-port="1" />
		<edge from-layer="2573" from-port="2" to-layer="2575" to-port="0" />
		<edge from-layer="2574" from-port="0" to-layer="2575" to-port="1" />
		<edge from-layer="2575" from-port="2" to-layer="2576" to-port="2" />
		<edge from-layer="2576" from-port="4" to-layer="2578" to-port="0" />
		<edge from-layer="2577" from-port="0" to-layer="2578" to-port="1" />
		<edge from-layer="2578" from-port="2" to-layer="2580" to-port="0" />
		<edge from-layer="2579" from-port="0" to-layer="2580" to-port="1" />
		<edge from-layer="2580" from-port="2" to-layer="2582" to-port="0" />
		<edge from-layer="2581" from-port="0" to-layer="2582" to-port="1" />
		<edge from-layer="2582" from-port="2" to-layer="2587" to-port="0" />
		<edge from-layer="2583" from-port="0" to-layer="2587" to-port="1" />
		<edge from-layer="2584" from-port="0" to-layer="2587" to-port="2" />
		<edge from-layer="2585" from-port="0" to-layer="2587" to-port="3" />
		<edge from-layer="2586" from-port="0" to-layer="2587" to-port="4" />
		<edge from-layer="2587" from-port="5" to-layer="2592" to-port="0" />
		<edge from-layer="2588" from-port="0" to-layer="2589" to-port="0" />
		<edge from-layer="2589" from-port="1" to-layer="2591" to-port="0" />
		<edge from-layer="2590" from-port="0" to-layer="2591" to-port="1" />
		<edge from-layer="2591" from-port="2" to-layer="2592" to-port="1" />
		<edge from-layer="2592" from-port="2" to-layer="2594" to-port="0" />
		<edge from-layer="2593" from-port="0" to-layer="2594" to-port="1" />
		<edge from-layer="2594" from-port="2" to-layer="2595" to-port="0" />
		<edge from-layer="2595" from-port="2" to-layer="2597" to-port="0" />
		<edge from-layer="2596" from-port="0" to-layer="2597" to-port="1" />
		<edge from-layer="2597" from-port="2" to-layer="2599" to-port="0" />
		<edge from-layer="2598" from-port="0" to-layer="2599" to-port="1" />
		<edge from-layer="2599" from-port="2" to-layer="2601" to-port="0" />
		<edge from-layer="2600" from-port="0" to-layer="2601" to-port="1" />
		<edge from-layer="2601" from-port="2" to-layer="2603" to-port="0" />
		<edge from-layer="2601" from-port="2" to-layer="2631" to-port="1" />
		<edge from-layer="2602" from-port="0" to-layer="2603" to-port="1" />
		<edge from-layer="2603" from-port="2" to-layer="2608" to-port="0" />
		<edge from-layer="2604" from-port="0" to-layer="2608" to-port="1" />
		<edge from-layer="2605" from-port="0" to-layer="2608" to-port="2" />
		<edge from-layer="2606" from-port="0" to-layer="2608" to-port="3" />
		<edge from-layer="2607" from-port="0" to-layer="2608" to-port="4" />
		<edge from-layer="2608" from-port="5" to-layer="2613" to-port="0" />
		<edge from-layer="2609" from-port="0" to-layer="2610" to-port="0" />
		<edge from-layer="2610" from-port="1" to-layer="2612" to-port="0" />
		<edge from-layer="2611" from-port="0" to-layer="2612" to-port="1" />
		<edge from-layer="2612" from-port="2" to-layer="2613" to-port="1" />
		<edge from-layer="2613" from-port="2" to-layer="2615" to-port="0" />
		<edge from-layer="2614" from-port="0" to-layer="2615" to-port="1" />
		<edge from-layer="2615" from-port="2" to-layer="2616" to-port="0" />
		<edge from-layer="2616" from-port="1" to-layer="2618" to-port="0" />
		<edge from-layer="2617" from-port="0" to-layer="2618" to-port="1" />
		<edge from-layer="2618" from-port="2" to-layer="2623" to-port="0" />
		<edge from-layer="2619" from-port="0" to-layer="2623" to-port="1" />
		<edge from-layer="2620" from-port="0" to-layer="2623" to-port="2" />
		<edge from-layer="2621" from-port="0" to-layer="2623" to-port="3" />
		<edge from-layer="2622" from-port="0" to-layer="2623" to-port="4" />
		<edge from-layer="2623" from-port="5" to-layer="2628" to-port="0" />
		<edge from-layer="2624" from-port="0" to-layer="2625" to-port="0" />
		<edge from-layer="2625" from-port="1" to-layer="2627" to-port="0" />
		<edge from-layer="2626" from-port="0" to-layer="2627" to-port="1" />
		<edge from-layer="2627" from-port="2" to-layer="2628" to-port="1" />
		<edge from-layer="2628" from-port="2" to-layer="2630" to-port="0" />
		<edge from-layer="2629" from-port="0" to-layer="2630" to-port="1" />
		<edge from-layer="2630" from-port="2" to-layer="2631" to-port="0" />
		<edge from-layer="2631" from-port="2" to-layer="2633" to-port="0" />
		<edge from-layer="2632" from-port="0" to-layer="2633" to-port="1" />
		<edge from-layer="2633" from-port="2" to-layer="2635" to-port="0" />
		<edge from-layer="2634" from-port="0" to-layer="2635" to-port="1" />
		<edge from-layer="2635" from-port="2" to-layer="2637" to-port="0" />
		<edge from-layer="2636" from-port="0" to-layer="2637" to-port="1" />
		<edge from-layer="2637" from-port="2" to-layer="2639" to-port="0" />
		<edge from-layer="2637" from-port="2" to-layer="2707" to-port="1" />
		<edge from-layer="2638" from-port="0" to-layer="2639" to-port="1" />
		<edge from-layer="2639" from-port="2" to-layer="2644" to-port="0" />
		<edge from-layer="2640" from-port="0" to-layer="2644" to-port="1" />
		<edge from-layer="2641" from-port="0" to-layer="2644" to-port="2" />
		<edge from-layer="2642" from-port="0" to-layer="2644" to-port="3" />
		<edge from-layer="2643" from-port="0" to-layer="2644" to-port="4" />
		<edge from-layer="2644" from-port="5" to-layer="2681" to-port="0" />
		<edge from-layer="2644" from-port="5" to-layer="2665" to-port="0" />
		<edge from-layer="2644" from-port="5" to-layer="2649" to-port="0" />
		<edge from-layer="2645" from-port="0" to-layer="2646" to-port="0" />
		<edge from-layer="2646" from-port="1" to-layer="2648" to-port="0" />
		<edge from-layer="2647" from-port="0" to-layer="2648" to-port="1" />
		<edge from-layer="2648" from-port="2" to-layer="2649" to-port="1" />
		<edge from-layer="2649" from-port="2" to-layer="2651" to-port="0" />
		<edge from-layer="2650" from-port="0" to-layer="2651" to-port="1" />
		<edge from-layer="2651" from-port="2" to-layer="2656" to-port="0" />
		<edge from-layer="2652" from-port="0" to-layer="2656" to-port="1" />
		<edge from-layer="2653" from-port="0" to-layer="2656" to-port="2" />
		<edge from-layer="2654" from-port="0" to-layer="2656" to-port="3" />
		<edge from-layer="2655" from-port="0" to-layer="2656" to-port="4" />
		<edge from-layer="2656" from-port="5" to-layer="2658" to-port="0" />
		<edge from-layer="2657" from-port="0" to-layer="2658" to-port="1" />
		<edge from-layer="2658" from-port="2" to-layer="2660" to-port="0" />
		<edge from-layer="2659" from-port="0" to-layer="2660" to-port="1" />
		<edge from-layer="2660" from-port="2" to-layer="2688" to-port="0" />
		<edge from-layer="2661" from-port="0" to-layer="2662" to-port="0" />
		<edge from-layer="2662" from-port="1" to-layer="2664" to-port="0" />
		<edge from-layer="2663" from-port="0" to-layer="2664" to-port="1" />
		<edge from-layer="2664" from-port="2" to-layer="2665" to-port="1" />
		<edge from-layer="2665" from-port="2" to-layer="2667" to-port="0" />
		<edge from-layer="2666" from-port="0" to-layer="2667" to-port="1" />
		<edge from-layer="2667" from-port="2" to-layer="2672" to-port="0" />
		<edge from-layer="2668" from-port="0" to-layer="2672" to-port="1" />
		<edge from-layer="2669" from-port="0" to-layer="2672" to-port="2" />
		<edge from-layer="2670" from-port="0" to-layer="2672" to-port="3" />
		<edge from-layer="2671" from-port="0" to-layer="2672" to-port="4" />
		<edge from-layer="2672" from-port="5" to-layer="2674" to-port="0" />
		<edge from-layer="2673" from-port="0" to-layer="2674" to-port="1" />
		<edge from-layer="2674" from-port="2" to-layer="2676" to-port="0" />
		<edge from-layer="2675" from-port="0" to-layer="2676" to-port="1" />
		<edge from-layer="2676" from-port="2" to-layer="2688" to-port="1" />
		<edge from-layer="2677" from-port="0" to-layer="2678" to-port="0" />
		<edge from-layer="2678" from-port="1" to-layer="2680" to-port="0" />
		<edge from-layer="2679" from-port="0" to-layer="2680" to-port="1" />
		<edge from-layer="2680" from-port="2" to-layer="2681" to-port="1" />
		<edge from-layer="2681" from-port="2" to-layer="2683" to-port="0" />
		<edge from-layer="2682" from-port="0" to-layer="2683" to-port="1" />
		<edge from-layer="2683" from-port="2" to-layer="2685" to-port="0" />
		<edge from-layer="2684" from-port="0" to-layer="2685" to-port="1" />
		<edge from-layer="2685" from-port="2" to-layer="2687" to-port="0" />
		<edge from-layer="2686" from-port="0" to-layer="2687" to-port="1" />
		<edge from-layer="2687" from-port="2" to-layer="2688" to-port="2" />
		<edge from-layer="2688" from-port="4" to-layer="2690" to-port="0" />
		<edge from-layer="2689" from-port="0" to-layer="2690" to-port="1" />
		<edge from-layer="2690" from-port="2" to-layer="2692" to-port="0" />
		<edge from-layer="2691" from-port="0" to-layer="2692" to-port="1" />
		<edge from-layer="2692" from-port="2" to-layer="2694" to-port="0" />
		<edge from-layer="2693" from-port="0" to-layer="2694" to-port="1" />
		<edge from-layer="2694" from-port="2" to-layer="2699" to-port="0" />
		<edge from-layer="2695" from-port="0" to-layer="2699" to-port="1" />
		<edge from-layer="2696" from-port="0" to-layer="2699" to-port="2" />
		<edge from-layer="2697" from-port="0" to-layer="2699" to-port="3" />
		<edge from-layer="2698" from-port="0" to-layer="2699" to-port="4" />
		<edge from-layer="2699" from-port="5" to-layer="2704" to-port="0" />
		<edge from-layer="2700" from-port="0" to-layer="2701" to-port="0" />
		<edge from-layer="2701" from-port="1" to-layer="2703" to-port="0" />
		<edge from-layer="2702" from-port="0" to-layer="2703" to-port="1" />
		<edge from-layer="2703" from-port="2" to-layer="2704" to-port="1" />
		<edge from-layer="2704" from-port="2" to-layer="2706" to-port="0" />
		<edge from-layer="2705" from-port="0" to-layer="2706" to-port="1" />
		<edge from-layer="2706" from-port="2" to-layer="2707" to-port="0" />
		<edge from-layer="2707" from-port="2" to-layer="2709" to-port="0" />
		<edge from-layer="2708" from-port="0" to-layer="2709" to-port="1" />
		<edge from-layer="2709" from-port="2" to-layer="2711" to-port="0" />
		<edge from-layer="2710" from-port="0" to-layer="2711" to-port="1" />
		<edge from-layer="2711" from-port="2" to-layer="2713" to-port="0" />
		<edge from-layer="2712" from-port="0" to-layer="2713" to-port="1" />
		<edge from-layer="2713" from-port="2" to-layer="2743" to-port="1" />
		<edge from-layer="2713" from-port="2" to-layer="2715" to-port="0" />
		<edge from-layer="2714" from-port="0" to-layer="2715" to-port="1" />
		<edge from-layer="2715" from-port="2" to-layer="2720" to-port="0" />
		<edge from-layer="2716" from-port="0" to-layer="2720" to-port="1" />
		<edge from-layer="2717" from-port="0" to-layer="2720" to-port="2" />
		<edge from-layer="2718" from-port="0" to-layer="2720" to-port="3" />
		<edge from-layer="2719" from-port="0" to-layer="2720" to-port="4" />
		<edge from-layer="2720" from-port="5" to-layer="2725" to-port="0" />
		<edge from-layer="2721" from-port="0" to-layer="2722" to-port="0" />
		<edge from-layer="2722" from-port="1" to-layer="2724" to-port="0" />
		<edge from-layer="2723" from-port="0" to-layer="2724" to-port="1" />
		<edge from-layer="2724" from-port="2" to-layer="2725" to-port="1" />
		<edge from-layer="2725" from-port="2" to-layer="2727" to-port="0" />
		<edge from-layer="2726" from-port="0" to-layer="2727" to-port="1" />
		<edge from-layer="2727" from-port="2" to-layer="2728" to-port="0" />
		<edge from-layer="2728" from-port="1" to-layer="2730" to-port="0" />
		<edge from-layer="2729" from-port="0" to-layer="2730" to-port="1" />
		<edge from-layer="2730" from-port="2" to-layer="2735" to-port="0" />
		<edge from-layer="2731" from-port="0" to-layer="2735" to-port="1" />
		<edge from-layer="2732" from-port="0" to-layer="2735" to-port="2" />
		<edge from-layer="2733" from-port="0" to-layer="2735" to-port="3" />
		<edge from-layer="2734" from-port="0" to-layer="2735" to-port="4" />
		<edge from-layer="2735" from-port="5" to-layer="2740" to-port="0" />
		<edge from-layer="2736" from-port="0" to-layer="2737" to-port="0" />
		<edge from-layer="2737" from-port="1" to-layer="2739" to-port="0" />
		<edge from-layer="2738" from-port="0" to-layer="2739" to-port="1" />
		<edge from-layer="2739" from-port="2" to-layer="2740" to-port="1" />
		<edge from-layer="2740" from-port="2" to-layer="2742" to-port="0" />
		<edge from-layer="2741" from-port="0" to-layer="2742" to-port="1" />
		<edge from-layer="2742" from-port="2" to-layer="2743" to-port="0" />
		<edge from-layer="2743" from-port="2" to-layer="2745" to-port="0" />
		<edge from-layer="2744" from-port="0" to-layer="2745" to-port="1" />
		<edge from-layer="2745" from-port="2" to-layer="2747" to-port="0" />
		<edge from-layer="2746" from-port="0" to-layer="2747" to-port="1" />
		<edge from-layer="2747" from-port="2" to-layer="2749" to-port="0" />
		<edge from-layer="2748" from-port="0" to-layer="2749" to-port="1" />
		<edge from-layer="2749" from-port="2" to-layer="2750" to-port="0" />
	</edges>
	<rt_info>
		<Runtime_version value="2024.4.1-16618-643f23d1318-releases/2024/4" />
		<conversion_parameters>
			<framework value="pytorch" />
			<is_python_object value="True" />
		</conversion_parameters>
		<nncf>
			<friendly_names_were_updated value="True" />
			<quantization>
				<advanced_parameters value="{'overflow_fix': 'disable', 'quantize_outputs': False, 'inplace_statistics': True, 'disable_channel_alignment': True, 'disable_bias_correction': False, 'batchwise_statistics': None, 'activations_quantization_params': None, 'weights_quantization_params': None, 'activations_range_estimator_params': {'min': {'statistics_type': None, 'aggregator_type': None, 'clipping_value': None, 'quantile_outlier_prob': 0.0001}, 'max': {'statistics_type': None, 'aggregator_type': None, 'clipping_value': None, 'quantile_outlier_prob': 0.0001}}, 'weights_range_estimator_params': {'min': {'statistics_type': None, 'aggregator_type': None, 'clipping_value': None, 'quantile_outlier_prob': 0.0001}, 'max': {'statistics_type': None, 'aggregator_type': None, 'clipping_value': None, 'quantile_outlier_prob': 0.0001}}, 'bias_correction_params': {'apply_for_all_nodes': False, 'threshold': None}, 'smooth_quant_alphas': {'convolution': -1, 'matmul': 0.95}, 'smooth_quant_alpha': None, 'backend_params': {}}" />
				<fast_bias_correction value="True" />
				<ignored_scope>
					<types value="['GroupNormalization']" />
				</ignored_scope>
				<model_type value="transformer" />
				<preset value="mixed" />
				<subset_size value="300" />
				<target_device value="ANY" />
			</quantization>
		</nncf>
		<optimum>
			<optimum_intel_version value="1.20.1" />
			<optimum_version value="1.23.3" />
			<pytorch_version value="2.5.1" />
			<transformers_version value="4.46.2" />
		</optimum>
	</rt_info>
</net>
